assets/deep_resnet/resnet_depth_3_sigma_10.pth (torch_old, 309745 bytes, 4 tensors)

model.0.weight f4 [64, 3, 3, 3]
00000000: aeab 7a3d a3fe 8bbd df67 313e bdab 66bd
00000010: 1578 a93e d5f0 febc ac43 663e db2a fb3b
00000020: fbb1 093e 95be 43bd f8ae 1d3d 7eb0 d23c
00000030: 1828 ffbd 8739 033e 2676 ad3d a81f 163e
00000040: 54f4 983e 9959 90bd d1d9 a9bc a2f6 d33b
00000050: 2cb5 8cbd ca15 2a3e f809 7ebd bd9e 1abc
00000060: 6563 12be cec9 1a3d 7c2e 853b b871 12be
00000070: 1269 183d a0e4 553d 1333 17bc 833f 04be
00000080: 9e32 c93d 8594 3d3e 7c7a ad3c 1230 fd3d
00000090: 9968 71bd 3b3c 43be 770d c2bc f765 903c
000000a0: 70d3 47be 35ea 133e dd57 0cbe 9859 bf3c
000000b0: 6233 183e c9e6 5cbd 354b 0f3c 7a33 e53c
000000c0: 846d c9bc 2fdf fabd 9181 2abe d26d 0cbd
000000d0: 18bb fcbd 4dbd 26be beb7 42bd fe63 de3d
000000e0: 6b4f e93d 92ba 3d3e baea 8c3d affa 10be
000000f0: 8de5 823c 91ec d6bc 94b0 2bbc 377d 9c3d
00000100: 5071 1fbc c754 79bd 0bf5 893d 2c95 96bd
00000110: 3f6a cbbd 9ddc 17be 9e60 33bd abc0 9b3c
00000120: f1c6 133e 11fa a73c d4d2 9fbc 7578 193c
00000130: e36e 0abd 8e9e 803d 33f6 ba3d 9f95 1d3e
00000140: 921c a2bd 0f25 823d a628 013e 6ece 523c
00000150: a666 2f3e 8792 41be e42c bbbc 67ca a03d
00000160: 3f28 573d 53f5 813d e735 bb3c 936a 993d
00000170: 7b33 4c3e 3e9c 143d d53c 64be 1f84 92bd
00000180: b651 1cbe 4a49 553e 3bc9 04be 839b 063d
00000190: ddbd 27be 34b1 1e3e 8c95 893e cfd6 9a3d
000001a0: 154b 4d3e efbb 7abd c358 023e 21bc f5bc
000001b0: 859e d43c 32c9 0e3e 5b12 d3bd b530 80bd
000001c0: e304 40bd b0cf 543e 945a 8cbe 152e ed3b
000001d0: 66a1 96bd d10b a83d 65f8 d23d ab11 f8bc
000001e0: ca1d f23c 2c8a 96bd 4618 db3d c25f 15bd
000001f0: a683 083e fcbb 2abe b5a5 2dbe e208 2fbd
00000200: 6448 773d dfce bfbb b0d5 1e3e 0a1e 1bbe
00000210: d22e debb ecab bfbc ae6a bc3e 0dae 19be
00000220: b07b 9abd c130 103e d433 603d 5399 373c
00000230: 3d28 543d a149 d23d c2c9 91bd fa54 293d
00000240: dd27 e73c 2bb8 e03d 6768 523d 83ba 9d3e
00000250: 1d87 1f3d bd14 4e3d ef3d 26bd 77bc 963c
00000260: 853c 113e f414 80be aebb 7bbd 446f 6dbd
00000270: 6ad4 5cbc 4ee6 e13d ef09 02be 966d 1e3e
00000280: 7ea9 893d 7800 c23c f450 703e 4445 9f3d
00000290: 00cc 4bb9 aeb1 ac3d c23a 603e 8295 b93c
000002a0: 4155 873e 4a89 f53d 1f99 2f3d 583d 993d
000002b0: 94f1 5f3d cb53 40be 6299 18be 2c07 babd
000002c0: f37f 42be 314a 20bd 3f6e a6bc be39 f23b
000002d0: 6c8c 7ebd 396d 79bc cc28 44bc 4b4d c1bc
000002e0: 026c a33d 53ed 81be a855 b63c 66f6 6d3c
000002f0: 841d 03be 5a3a 06bd fe1d c43d 625a 293c
00000300: a9fd 043e 16aa 133e bbfd 1c3e 3389 84bd
00000310: 42f7 5fbd d617 b8bd fcaa 78be 3bd4 2cbe
00000320: 878d 81bc 7137 c2bb 64ea eebd 4941 27be
00000330: ca2c d43c 4b8c 29be c32f c0bd 54ab e5bd
00000340: fae0 1bbe 2427 173d 6e0a a33d dc9c c63c
00000350: bd0d 043e 7c81 673e caad 15be c7ea bebd
00000360: 9611 49bd f804 a13e e9db fd3c db08 483d
00000370: 6291 d33d 636e c7bd 16ae 483e 29ae 97be
00000380: 3c46 fbbd 4319 3e3e 6658 cbbd 574b 3b3d
00000390: c18f f33d a644 24be 3240 583e c2bb 0abd
000003a0: c4f3 a33c 433b 393d d619 d43d a9bc 833e
000003b0: 9e3b 3dbc c96d 18be 398c 023d 521e 903c
000003c0: af58 3cbe ba6c f0bd a179 113e 7d07 1abe
000003d0: c622 033e 8611 5dbe f62a 4abe df52 133e
000003e0: ded7 143d d2d4 3bbc e1ed 9e3e 5239 953d
000003f0: e64e 923d 0ad9 74be 30b2 cebc 35d6 f5bb
0.061198883 -0.068356775 0.1732478 -0.056316126 0.33099428 -0.031120697 0.22486752 0.007665021
0.134468 -0.047789175 0.03849694 0.025718924 -0.12458819 0.12814914 0.08469801 0.14660513
0.29873908 -0.070483394 -0.020733746 0.00646861 -0.06870493 0.16609874 -0.062021226 -0.00943726
-0.14295729 0.037790112 0.0040643793 -0.14301193 0.037209578 0.052219987 -0.009228486 -0.12914853
0.098241076 0.18513687 0.02117657 0.12362684 -0.058937643 -0.19065945 -0.023688061 0.017626746
-0.19514251 0.14444812 -0.13705392 0.023358151 0.14863351 -0.05393103 0.008745958 0.027978648
-0.024588354 -0.122496 -0.16650988 -0.03428442 -0.12340373 -0.1628315 -0.04753851 0.10858916
0.11392101 0.18528202 0.06880708 -0.14158128 0.015978599 -0.02623585 -0.010479111 0.0764107
-0.009731606 -0.060871866 0.06736191 -0.07352671 -0.09932374 -0.14830251 -0.043793313 0.01901277
0.14431359 0.020504983 -0.01950971 0.009367098 -0.033797156 0.06280242 0.0912899 0.15389107
-0.079156056 0.063547246 0.12613162 0.0128665995 0.17129001 -0.18903552 -0.022848554 0.07851105
0.052528616 0.0634562 0.022852851 0.074910305 0.19941513 0.036281817 -0.2228883 -0.07154106
-0.15265545 0.20828739 -0.12967388 0.03286315 -0.16381021 0.15497285 0.26871908 0.07560503
0.20048173 -0.061214384 0.12729172 -0.029996933 0.025954494 0.13943937 -0.103062354 -0.0625929
-0.04687966 0.20782351 -0.27412856 0.0072381594 -0.07355003 0.08205379 0.10301284 -0.030281862
0.02955522 -0.07350573 0.10697989 -0.036468275 0.1333147 -0.16673273 -0.16957743 -0.04273308
0.06037177 -0.0058535184 0.15511203 -0.15148178 -0.0067804838 -0.023397408 0.3680014 -0.15007801
-0.07543123 0.14081098 0.054736927 0.011205989 0.051796187 0.1026795 -0.071185604 0.041340806
0.02821725 0.10972627 0.051369097 0.3080636 0.038947213 0.050312746 -0.04058641 0.018400414
0.14183243 -0.25015986 -0.061458282 -0.05796744 -0.013478378 0.11030255 -0.12699102 0.15471491
0.06721781 0.023681864 0.23468381 0.07776883 -0.00019435585 0.08432327 0.21897414 0.022654299
0.2643223 0.119890764 0.042870637 0.074824035 0.054673746 -0.18781964 -0.14902261 -0.09083399
-0.18994121 -0.039133254 -0.020316241 0.0073921373 -0.062145635 -0.015223795 -0.011972617 -0.023596426
0.07979585 -0.25376377 0.022257641 0.014524078 -0.12804228 -0.032770492 0.09576033 0.01033649
0.12987389 0.14420351 0.15331165 -0.06471481 -0.054679163 -0.08988921 -0.24283975 -0.16877834
-0.015814556 -0.0059270193 -0.116658 -0.16333498 0.025900263 -0.16557424 -0.0938411 -0.11214319
-0.1522254 0.03690256 0.07960974 0.024244718 0.12895866 0.22607988 -0.14617077 -0.09322124
-0.049089037 0.31449103 0.03098865 0.04883657 0.10330464 -0.097378515 0.19597659 -0.2962506
-0.122692555 0.18564324 -0.0992897 0.045726147 0.11892653 -0.16041812 0.21118239 -0.033870466
0.020013697 0.045222532 0.1035649 0.25729874 -0.011549858 -0.1488563 0.031872008 0.017592583
-0.18393205 -0.11739488 0.14206554 -0.15041919 0.12806234 -0.21588716 -0.19742951 0.14387082
0.03633868 -0.011464315 0.31040862 0.072863236 0.07143955 -0.23910919 -0.02523145 -0.007502342

model.2.conv_1.weight f4 [64, 64, 3, 3]
00000000: 92be 45bc c56f df3c b41d 5abd 073b dfbc
00000010: 4413 7fbd 2969 183c 6b2d b73c f692 6b3d
00000020: 6dfd 37bd fbf8 6d3d b977 11bd a52b c03c
00000030: 0f16 9d3c 1f0a bbbc d140 203c c127 633d
00000040: 8d53 c8bc e179 103d 8d0f 2d3d f1fc 923c
00000050: 03ee e9bc 33b0 d9bc 3153 8f3c b6f6 fd3c
00000060: 3b07 d6bb 7f72 95bc db5e c33d b882 b7bc
00000070: 4b6e 6d3c 9416 47bc e993 52bd d562 ccbb
00000080: 133f c0bc afdd 09bb 63c2 293c a98a 7dbd
00000090: b01e 8b3c a76e 783a 877b 0e3d f1c8 08bd
000000a0: 53b3 823d 1309 873d b5be a63d e72d 39bc
000000b0: 4a49 aa3d 0242 173d f2b4 1bbd 326f 8ebc
000000c0: 4050 cf3c d861 f5bc 8ecf 38bb a716 473d
000000d0: 6a4f 0fbd fa16 4f3d 890d 7bbc a28b 06bd
000000e0: 8408 79bb c6c9 37bd ae74 0f3c e942 84bd
000000f0: 6453 e5bb 1c82 82bc 334c 54bd a51d 013d
00000100: 1a74 dbbc 56dd 333d cb3f 07bd 12d7 82bc
00000110: 2377 b73c 2659 9ebd a789 0a3d 07ad 4e3d
00000120: 8de9 1dbd 1eb0 ce3b b400 93bc 4199 fc3c
00000130: ad9d 2dbd 5543 e83b 7258 efbd 04e7 abbb
00000140: 8bf8 8fbc c99d c839 e4f4 e6bc ad35 9dbc
00000150: 5dd9 4f3c 366a b6bd 9eba 083c 4742 023d
00000160: 60e5 b8bc 91b4 9b3d bbec 943d 6c6f 9ebc
00000170: 99b8 3d3c 2d86 0abd a9b1 78bd f2b6 76bd
00000180: 7db9 0ebc 2f6a 173d 61a7 ca3c 4f62 9ebc
00000190: eef0 d13c 7d11 a93d 8b40 e43c ef49 de3b
000001a0: ff51 89ba 1ff4 803c ac39 5f3d 8965 14bd
000001b0: dc9d c0bc 34ce 8cbc 41bd a9bb f380 853c
000001c0: a8a9 91bc 807e 393d eb4e 553c d9b6 5d3d
000001d0: 3bd5 b53c 1f5d d03c 9aab 01bd 3c73 b33c
000001e0: e340 433d d423 203c 5413 c53c 1649 62ba
000001f0: e515 803c a24f 9fbc 8971 52bd 2af3 013d
00000200: b311 26bd dcf5 62ba 47e8 94bd c48e b1bd
00000210: f669 3d3d 105d 85bd 067e 5e3d 9663 d93c
00000220: 3c61 2dbd 5f05 07bd a641 a83c 59bf d8bc
00000230: e093 903d 7961 09bc a2f7 9b3c 8948 233e
00000240: af13 d23c 5743 b83c b67b 83bc 0649 8dbc
00000250: 96fe 1e3d 91c9 1cbd 54c5 9abc 3058 9bbd
00000260: e781 8abd f6a2 39bd e2ac d43c a2f6 6b3d
00000270: 6438 0e3d d995 023d 951a 1ebd 51b5 79bd
00000280: a293 37bc 098b 1fbc 90b8 5dbd 1cef 913d
00000290: 9833 75bc 28b0 583d 3637 83bd 7878 8a3d
000002a0: dfae 3dbc 37c0 d4bb 949a 1fbd 5165 80bd
000002b0: 8387 e0bc 5795 82bc 002b 0cbd ee3e 8f3c
000002c0: b56d e23c 5c34 593d 2ad4 903d f594 2d3c
000002d0: e081 1d3d f7f0 45bc 61da be3b d6ca 15bd
000002e0: 5a43 50bd 497c bdbc e43f 00bc 887d 42bd
000002f0: 9ef3 55bc 5732 9b3c 65e5 863c 7c25 d43c
00000300: 506c 29bc f06a 0cbd 7506 bcbc 0cf6 7f3d
00000310: e81f 023d d391 19bd faa1 67bd 007d b9bc
00000320: 8e10 75bc eb8d 883d dded 393d 3aed 28bd
00000330: 6d8e b63d bd92 713d b56e 80bd e428 bebc
00000340: 03da 4bbd 8b34 95bd 2ad1 a13d 6a81 9ebc
00000350: b32e cb3c f395 0abc 2e5e 943d dbc5 fbbb
00000360: c1ef 413b 6878 c13c 0649 483d 7a2c 7fbd
00000370: e4aa 48bd 0251 893c 6e81 9ebc 9b04 853d
00000380: 90b3 0abd 20bf b03c 197e 943c 0a08 eabb
00000390: 6e01 3b39 7570 b1bd c39f a8bc fa04 103c
000003a0: 9d94 21bd bd41 3e3d 0b38 093d ffa7 133d
000003b0: 7d21 913d 20be 09bd c062 a2bd 6aa1 af3c
000003c0: 5900 73bc 9aef 29bd 7f3f 6cbd c20b d6bc
000003d0: 88e0 6abd 5fa7 72bd ae4e 243d 4b6a 2dbd
000003e0: 85dd 48bd f498 73bd 54ef 31bd de56 42bd
000003f0: 3fbb 9cbb 1c85 4a3d c775 253d d35e d7bc
-0.012069361 0.027274976 -0.053250983 -0.027249826 -0.062274233 0.009302416 0.022360524 0.0575132
-0.04491942 0.058098774 -0.035514567 0.023458311 0.019175557 -0.022831975 0.009781078 0.055457834
-0.024453903 0.035272483 0.04225116 0.017942877 -0.028555876 -0.026573276 0.017495723 0.03100143
-0.0065316237 -0.018243073 0.095395766 -0.022401199 0.014491628 -0.012151379 -0.05141059 -0.0062373676
-0.023467576 -0.0021036675 0.010361287 -0.061899815 0.016982406 0.00094769377 0.034785774 -0.033394758
0.0638186 0.06593528 0.08141843 -0.011302448 0.0831476 0.036928184 -0.03801436 -0.017387006
0.02530682 -0.029953882 -0.0028199884 0.048605587 -0.034987845 0.05055902 -0.015323051 -0.032848008
-0.003799946 -0.04487016 0.008755846 -0.064580746 -0.0069984663 -0.015931182 -0.05183048 0.03152241
-0.02678876 0.043912254 -0.033019822 -0.015971694 0.022395676 -0.077318475 0.03382268 0.05045798
-0.03855281 0.006307616 -0.017944671 0.030834796 -0.0423867 0.0070881047 -0.116867915 -0.005246045
-0.01757457 0.00038264532 -0.028192945 -0.019190634 0.012686101 -0.08906977 0.008345274 0.03180149
-0.022570312 0.076028 0.07271715 -0.01934024 0.011579656 -0.033819366 -0.060716305 -0.060233064
-0.008711216 0.0369665 0.024738016 -0.019333987 0.02562758 0.08255289 0.027862808 0.006783716
-0.0010476707 0.015741406 0.05449836 -0.036229644 -0.023512773 -0.017188169 -0.0051800315 0.01629684
-0.017781094 0.045286655 0.013019304 0.054129455 0.022196403 0.025435029 -0.031657793 0.021905534
0.047669303 0.009774167 0.024057068 -0.00086321065 0.01563544 -0.019447152 -0.051377807 0.03172604
-0.040544223 -0.0008657852 -0.07270866 -0.086698085 0.04624363 -0.06511891 0.054319404 0.026536744
-0.042329058 -0.032964107 0.020539116 -0.02645843 0.07059455 -0.008385056 0.019038979 0.15945639
0.025644151 0.022493048 -0.0160502 -0.017246734 0.03881701 -0.038278166 -0.018892922 -0.0758518
-0.06763058 -0.045321427 0.025961343 0.057608254 0.034721747 0.031881187 -0.03859957 -0.060963932
-0.011204632 -0.009737738 -0.05413109 0.071256846 -0.014965914 0.05290237 -0.06407015 0.06761259
-0.011577337 -0.0064926404 -0.038965777 -0.062693246 -0.027408367 -0.015940351 -0.034220695 0.017486062
0.027640203 0.05302845 0.07071717 0.010594596 0.038453937 -0.012081376 0.0058243726 -0.036570393
-0.05084548 -0.023130553 -0.007827733 -0.047482997 -0.013058571 0.018944902 0.016466806 0.02589678
-0.010340765 -0.03428167 -0.022952298 0.062490508 0.03176871 -0.037492584 -0.056550957 -0.022642612
-0.01495756 0.06667694 0.04539286 -0.041241862 0.08913884 0.05897783 -0.06271116 -0.023212858
-0.04976846 -0.072854124 0.07901223 -0.019348819 0.024802541 -0.008458602 0.07244526 -0.0076834983
0.0029592367 0.023616984 0.048897766 -0.062298276 -0.0489911 0.01676226 -0.019348826 0.06495019
-0.03386265 0.02157551 0.018126534 -0.0071420716 0.00017834242 -0.086640276 -0.020583993 0.008790249
-0.03944837 0.04644941 0.033500712 0.036048885 0.070864655 -0.033628583 -0.07928991 0.021439273
-0.014831626 -0.041488267 -0.057677742 -0.026128653 -0.057343036 -0.05924165 0.040114097 -0.042337697
-0.049039382 -0.05947204 -0.04344113 -0.047446124 -0.0047830637 0.04944335 0.040395524 -0.026290333

model.2.conv_2.weight f4 [64, 64, 3, 3]
00000000: 42db a93d 02d2 c9bd 5f94 a73c d435 74bd
00000010: a4d7 0d3d 2c71 4abc 4ea9 16bc 63d4 a53c
00000020: 8a83 30bc 55e7 09bb cfd4 abbb 89ef 953c
00000030: 8560 afbd 1c7b 3dbd 9c4c aabd 9a29 06bc
00000040: a96f 833d 637e 403d ed3d dabc d578 03bc
00000050: 1419 cb3c 1b8c 723c 05c3 65bd 67fe 2f3d
00000060: 9806 0cbc 66b7 853d 226f 983b 2d22 94bd
00000070: 4db1 aa3c 9bc2 3ebd 1cdf 11bc 60ce c4bb
00000080: 0f99 6abc 86f5 3bbd 1bcc 4d3c 1dde d0ba
00000090: b4fb 7cbc bd06 89bd be40 b7bc b4ad 813c
000000a0: b1f2 ffbb 1cd8 cdbc 2854 523a c9ba 0e3d
000000b0: 05c2 4cbd 16d1 063d 2120 5a3d 3637 0cbb
000000c0: f09c 873b b3ed 69bd a122 72bc e360 d23c
000000d0: 447b ca3c bfc9 a03b 3e02 cbbc d320 25bd
000000e0: 83f0 783d 482e 56bd ffc7 28bd 75b6 9fbd
000000f0: 1b1d b9bc be5f 45bc 3dd7 01bc 866f 4fbd
00000100: e664 8dbc 6612 41bd 091d c2bc 50d7 13bb
00000110: 91e0 a8bd 5cb2 05bd de73 b33c e17d a53c
00000120: 2498 213d 038d 543d 3f26 aebc b985 be3c
00000130: 1edb 80bb 131f dfbc e364 d43b bf84 973a
00000140: c8e8 363c 413e 783d 3914 2dbd 4357 173d
00000150: aa47 d6bc b79d 91bd 53ed 84bd c355 683c
00000160: 0cdb acbd bfac a8bd d6f5 b63c 6d14 233c
00000170: 0692 88bc 007b 84bd d725 dbbb a043 863c
00000180: f072 acbc 5302 f93c cba6 7e3d 2fe9 7a3c
00000190: 05f6 983b 6052 2fbd 52e2 4e3c 43cb bbbc
000001a0: c0f5 43bd 76cd d4bd ec2b 17bd bd17 ce3c
000001b0: bb4a f73b 544d 7f3d a251 01bd 2a85 a93b
000001c0: c0e3 38bc 1df9 4fbd 0c04 f4bb 3e08 523c
000001d0: e98b 433c ac76 b23c 8195 db3d 07d6 babc
000001e0: 56df 083b 7426 a53d 408c 46bd b84e 0d3b
000001f0: a0db 95bc 1948 6a3c b184 b4bc 5ae5 dbbc
00000200: f5d7 c23c 75d0 9e3d b653 7e3d dd5e 8abd
00000210: 23c2 c63a 01a5 f93c 1df7 753d e35d 0b3d
00000220: 1832 d4bb d8fe b4bc d1ed 7d3d 9d41 3bbd
00000230: c95c 583d 37c7 bc3c 8c0e 7b3d a129 5a3d
00000240: 65c6 1237 093e 873c d4e1 30bc a3b5 bf3d
00000250: 15e4 5ebd f835 f8bc 7d6c d3bd 0218 a63c
00000260: 9de1 093d ce90 c93c 550f a63c 861b ca3c
00000270: 36b8 8fbd e49c 32bd f3b3 43bd 20a2 4c3b
00000280: 155a 923d 1956 06bd a192 383d 326e 2d3d
00000290: 00c1 5cbd 61fa bcbc 7af2 263b e655 c539
000002a0: 7ada 5c3d 7135 6bbc e4ef c7bc 2dab 98bc
000002b0: c575 aabc 122a 33bc a078 cf3d 8c57 ddbc
000002c0: aaff 03bc 53a2 983c 1eff c13d 7481 193d
000002d0: 9856 5e3d a54e 70ba 6b9d 88bd 622b 9cbd
000002e0: f045 2fbc 5b80 92bd c4b9 13bd 5b33 193c
000002f0: 3913 113d e4d7 6d3b 8adf 933d 5f60 a3bd
00000300: 5d4b 14bc 9c0d 153d d9bb 463b 278e 08bd
00000310: ff98 b93c df0e a93c dde2 403d aa5d 983d
00000320: fd4b b3bc cb23 f43c f8ea 013d e2a7 64bc
00000330: 104d bf3c 7301 0d3c fb1f 323d 03e3 dc3b
00000340: 2f8b 733d ef4c 413c ac93 1cbd b51a 98bc
00000350: b2bf af3c f1c4 2d3d 7eea 783d 0f89 00bc
00000360: fc87 513d 15af 84bd 8eaf 44bd 868a 5abd
00000370: b604 20bd 0582 5b3d 72f4 003d 0fac 05bd
00000380: 0b22 583b ca69 863c 571a 753c 10f3 8e3d
00000390: b940 843d e0c6 28bd 3ede 0b3d 59d6 9abd
000003a0: fd59 3d3d c5b1 8d3c 00f7 3b3d a070 7abb
000003b0: 8c3d e23c 490c 2b3c 14eb 3fbd 6412 c6bc
000003c0: 8872 77bc f063 d23c 7bc9 393c 780e 8ebd
000003d0: 3f45 e43d 3dec 24bc f058 2ebc f196 55bd
000003e0: 5bc5 7d3d 3d57 a13c b561 78bd ea38 a1bd
000003f0: 269f 51bb 8b02 ae3c 9fed 463d d470 273d
0.08293773 -0.09854509 0.020456491 -0.059621647 0.03462948 -0.012356084 -0.009195639 0.020242875
-0.010773549 -0.0021042426 -0.0052438746 0.018302696 -0.085633315 -0.046259984 -0.08315393 -0.0081886295
0.06417782 0.04699553 -0.026640857 -0.008024414 0.024792232 0.014803912 -0.05609419 0.042967226
-0.008546494 0.06529121 0.00465192 -0.07233081 0.020836497 -0.04657231 -0.008903291 -0.006006047
-0.014318719 -0.045888446 0.01256087 -0.0015935336 -0.01544087 -0.06690738 -0.022369739 0.015829898
-0.0078109135 -0.025127463 0.00080234045 0.0348461 -0.04998972 0.032914244 0.053253297 -0.0021395213
0.0041385815 -0.057111453 -0.014778764 0.025680965 0.02471698 0.0049068625 -0.024781343 -0.040314507
0.060776245 -0.05229023 -0.041206356 -0.07798473 -0.022596886 -0.0120467525 -0.007924852 -0.050643466
-0.017260026 -0.047136687 -0.023695486 -0.0022558756 -0.08245958 -0.0326408 0.021905836 0.020201625
0.039451733 0.05189229 -0.021258472 0.023257123 -0.003932371 -0.027236497 0.006481753 0.0011559947
0.011163898 0.060606245 -0.042255614 0.036948454 -0.026157219 -0.0711016 -0.064905785 0.014180603
-0.084402174 -0.08236074 0.02233402 0.0099536 -0.016671192 -0.06468773 -0.0066878605 0.016389668
-0.0210509 0.030396616 0.062170785 0.015314384 0.0046679997 -0.04280317 0.012627201 -0.022924071
-0.047841787 -0.10390751 -0.03690712 0.025157804 0.0075467504 0.062329605 -0.03157199 0.005173345
-0.011284769 -0.050774682 -0.0074467715 0.012819348 0.011935213 0.021785103 0.10721875 -0.022807134
0.0020885072 0.08063975 -0.048473597 0.0021561813 -0.018293202 0.014299416 -0.022035928 -0.026842762
0.023784617 0.07754604 0.06209155 -0.06756375 0.0015164058 0.030474188 0.06005012 0.034025084
-0.006475698 -0.022094175 0.061994378 -0.04571687 0.05282286 0.023044212 0.06129317 0.053262357
8.7484705e-06 0.016509073 -0.010796029 0.09360816 -0.054416735 -0.030299172 -0.10323427 0.02027512
0.033662427 0.024605181 0.020270983 0.024671327 -0.07017557 -0.043606654 -0.047779035 0.0031224564
0.07146088 -0.032796953 0.04506171 0.04234142 -0.053894997 -0.023068609 0.0025474117 0.00037638767
0.053919293 -0.014356003 -0.024406381 -0.01863631 -0.02080811 -0.010935323 0.10130429 -0.027019285
-0.0080565605 0.01863209 0.09472488 0.03747697 0.0542818 -0.00091669924 -0.0667065 -0.07625462
-0.010697827 -0.07153388 -0.03606583 0.009350623 0.035418723 0.003629201 0.07220371 -0.07977366
-0.009051171 0.036389932 0.0030324368 -0.033338692 0.022655962 0.020636974 0.047091354 0.0743974
-0.02188682 0.029802224 0.031718224 -0.013956042 0.023352176 0.008606303 0.04348753 0.006740929
0.059458908 0.011798128 -0.03822677 -0.018567422 0.021453712 0.042424146 0.060770504 -0.007845177
0.051155075 -0.06478707 -0.048018984 -0.053354762 -0.039066993 0.053590793 0.03148312 -0.03263479
0.0032979276 0.016407866 0.014959893 0.06979954 0.06457657 -0.041205287 0.034147494 -0.07560415
0.046228398 0.017296681 0.045889854 -0.0038214102 0.027617238 0.010439941 -0.046855047 -0.024178691
-0.01510299 0.02568242 0.011339541 -0.069363534 0.1114602 -0.010066089 -0.010641322 -0.052145902
0.06195579 0.019694919 -0.060640056 -0.078721836 -0.003198573 0.021241447 0.048566457 0.040879086

model.3.weight f4 [3, 64, 3, 3]
00000000: bdd1 54bc bd09 263d 747b d83c 9f67 893c
00000010: d93f 5e3d 40a8 6c3d e699 0a3d c36a a5bc
00000020: 0de3 ba3a cefe 813d 79e4 bf3b 7c45 2fbc
00000030: 44ae b3bc e4fd bf3b f293 e63c b5b3 34bc
00000040: 6825 ef3b 3422 503c 1307 013d 89c7 de3c
00000050: 88c7 85bc 0920 623c 2f94 043c 4d6d 0cbd
00000060: f2ad 8dbc bde9 56bc e6fc a9bd 2f14 053c
00000070: ad74 89bc dd1d f4bc 1e2c f4bc 5c7c 533c
00000080: 6a30 d93b d50c 9fbd 3834 9f3d 40ca c73d
00000090: 1a6d 5abc 0454 e9bc 9004 3ebd 4019 843d
000000a0: ca1e 9c3c 7b30 1e3a e30c 20bd bff5 9f3d
000000b0: 2923 e83c 2b7b 343d b6e0 0fbc af59 43bd
000000c0: 912f e73c 7048 073c 6eb7 91bc bded 823c
000000d0: 0285 36bd 6f49 38bc e5f6 933c 4b59 303d
000000e0: 6ce7 04bc 8c22 40bd d165 6cbc 5fa4 1b3d
000000f0: 6c3e c1bb 1dee e63b dfaa 6f3b 886c 0f3b
00000100: 073c 91bd 4148 7bbd b0f0 9e3c 91f1 973d
00000110: 749e c2bc afeb d4bb 6633 813d be59 603b
00000120: daa2 b13c 0092 183d 0d76 ac3d bceb c53b
00000130: 6dc0 49bc f8e3 043d c17d 883d fb81 98bd
00000140: 04cf a23c 4336 433d 549e 18bc 5211 c63c
00000150: cb5b be3c deea d23c 4e72 32bd 53f1 ad3b
00000160: 1d3f 72bd d97d 88bd 3eed c73c 8b89 aebd
00000170: e54d 2abc 5c6f 303d 1300 1dbd f948 b73d
00000180: 2e8e 4abc 06bb 34bd 36e0 f1ba 0827 53bc
00000190: 02ff 063d 1935 74ba fe07 093d e2d0 9bbb
000001a0: 7b06 16bd ab40 383d 142a f63c 3fb1 aebc
000001b0: d7e4 703b 1f96 913b 785f 31bd f7c1 dabb
000001c0: 820f 8c3c bb75 9a3d 8b26 483d 9b64 993d
000001d0: d9bf 56bd 8504 d7bc 5ff8 983d aabd 1e3d
000001e0: ca14 88bd 59fe 83bd fd58 8dbc 8ab8 c13c
000001f0: d34a 08bd fa27 fc3c c92b babd 48c5 11bc
00000200: c39e d9ba aced ec3b b468 81bd 312e a03d
00000210: 2bee 8b3d ed3f 94ba 53c5 903c e19b 223d
00000220: 1765 84bd 421a a93d cd86 a93d c263 1fba
00000230: 8ee7 ddbd e052 96bd b4d1 a83c 31b8 c4bc
00000240: 9661 063d 5002 42bd f5f3 ae3c b4cf 2e3b
00000250: 7ca0 83bd 9509 2b3d 09a9 28bc b671 8c3d
00000260: 64e6 f8bc 4a67 1abd f553 84bd b248 2e3b
00000270: 945e 993d f227 1abd 1a15 cbba 29a2 123d
00000280: eb63 39bc e918 7ebc 1050 95bd c4ee 893c
00000290: 94d6 fb3c fb61 0c3c 84f6 fb3a b53e 08bc
000002a0: c826 853d 70ac 59bc daaa 473d 097d 1ebc
000002b0: f057 143d 89ef 70bc 68c8 0a3d 9423 943d
000002c0: 2ffb c9bc 2867 b138 54b7 a4bb f2ae 07bd
000002d0: eca0 9e3c 0d8d 533c e14a d4bc 08ee 74bc
000002e0: 23ed 42bd 0aa5 8fbc 5856 eb3c 7325 cabc
000002f0: a84a 7d3c 4f2b 31bc 7fc6 02bd 7c34 493d
00000300: 9d1a 373d 67d7 db3c 7107 0c3c 60b7 1cbd
00000310: 3d4c 3b3d d867 c4bc 1858 183d 8be3 7fbd
00000320: 2ca1 0c3d 5b28 3ebc b0fe 093d d5f2 6b3b
00000330: c313 9b3d 926a 99bc 1815 49bd 7eb6 9ebd
00000340: bbcd 5fbd 11ea 5dbc 1974 9abc f49c 68bd
00000350: b9f9 3dbc d616 febb 2f17 cbbc 1ff4 73bc
00000360: ddd6 44bd 822d 813d d9f1 c5bc fdcf b7bc
00000370: 82ff 223c d2ad 033a bec9 08bd 499c cc3d
00000380: 7c73 8abd ff43 173d d9c2 d33c 61bc 6a3d
00000390: 3e9b 433d 375b 503d 6a28 153d b587 f9bd
000003a0: 4dc2 9ebc a98b 0dbe 1a40 a43d a63c 7d3c
000003b0: 11e5 e1bc 2227 253a b69f 2dbd f85e 623d
000003c0: 0790 8dbc a70b b9bd 7ce8 8dbc a094 e6bc
000003d0: 3a1a cabb 7600 623b 4d15 9ebc 2264 013d
000003e0: a05f 16bc 4129 263d 042d 493d 4d79 fb3c
000003f0: 832e 84bd cb60 883c 00b8 843c d19b 363d
-0.012989459 0.04053663 0.026426055 0.016773043 0.05426011 0.057777643 0.033838175 -0.02019251
0.001425834 0.06347428 0.0058560935 -0.010697719 -0.021933682 0.0058591235 0.028146718 -0.011029174
0.0072981603 0.012703467 0.031500887 0.027194755 -0.016330495 0.013801583 0.00809197 -0.034283925
-0.017294858 -0.013117251 -0.0830019 0.008122488 -0.016779268 -0.029799396 -0.029806193 0.012908068
0.006628086 -0.077661194 0.07773632 0.09755373 -0.013331676 -0.028482445 -0.04639107 0.064501286
0.01905765 0.0006034446 -0.03907479 0.07810544 0.028337078 0.044062775 -0.008781603 -0.04769295
0.028220924 0.008257017 -0.017787661 0.015982503 -0.04456044 -0.011247977 0.018062064 0.043053906
-0.008111816 -0.046907946 -0.014428572 0.037998553 -0.005897334 0.0070474283 0.0036570353 0.0021884758
-0.070915274 -0.061348204 0.019401878 0.07419122 -0.023757197 -0.0064978222 0.063086316 0.0034233178
0.021684099 0.03724861 0.08420954 0.0060400646 -0.012313944 0.03244397 0.06664611 -0.07446667
0.019874103 0.04765917 -0.009315092 0.02417818 0.02323713 0.025746759 -0.04356604 0.005308309
-0.05914222 -0.066646285 0.024405118 -0.08522328 -0.010394548 0.04307495 -0.03833015 0.08949465
-0.012363 -0.044123672 -0.0018453661 -0.012887724 0.03295804 -0.00093157735 0.033454888 -0.0047551254
-0.036627274 0.044983547 0.030049361 -0.021324752 0.0036757493 0.0044429447 -0.043303937 -0.0066759544
0.017097238 0.075419866 0.048864882 0.07489892 -0.052429054 -0.026247272 0.07469248 0.038755096
-0.0664459 -0.06444997 -0.017254347 0.023647565 -0.033274483 0.030780781 -0.090903826 -0.008897133
-0.0016603101 0.007230481 -0.06318799 0.0782131 0.06832536 -0.0011310555 0.017672217 0.03969944
-0.06464594 0.082569614 0.08277664 -0.0006080234 -0.10835181 -0.07340026 0.020607807 -0.02401361
0.03280791 -0.047365487 0.021356562 0.0026674094 -0.06427094 0.041757185 -0.010294207 0.06857626
-0.030383296 -0.03769616 -0.06461326 0.0026593623 0.074887425 -0.03763575 -0.001549396 0.03579918
-0.011315326 -0.015508869 -0.07290661 0.016837485 0.030741967 0.008568282 0.0019223248 -0.008315732
0.065015376 -0.013285741 0.04874692 -0.009673365 0.036216676 -0.014705547 0.03388253 0.072333485
-0.024655906 8.459232e-05 -0.005026737 -0.033125825 0.019363843 0.012912047 -0.025914611 -0.014949329
-0.047589432 -0.017534751 0.028727695 -0.02467606 0.015459694 -0.010813548 -0.031927582 0.04912232
0.044703115 0.02683611 0.008546696 -0.038260818 0.045727003 -0.023975298 0.037193388 -0.06247286
0.034333393 -0.011606301 0.033690155 0.0036002893 0.075721286 -0.018727574 -0.049092382 -0.07749651
-0.05463956 -0.013544575 -0.018854188 -0.056790307 -0.011595183 -0.007754187 -0.024791328 -0.014889746
-0.048056472 0.06307508 -0.024163174 -0.022438044 0.009948613 0.00050231547 -0.03339552 0.099907465
-0.06760308 0.03693008 0.025849747 0.05730856 0.047755472 0.05086824 0.036415495 -0.12184087
-0.01937976 -0.13822807 0.08020039 0.015456354 -0.027575048 0.0006300082 -0.04238864 0.05526635
-0.017280592 -0.09035426 -0.017322771 -0.028147042 -0.006167677 0.0034485138 -0.019297266 0.031589635
-0.009178072 0.040566687 0.049115196 0.03069749 -0.06454184 0.016647717 0.01620102 0.04458219
