assets/deep_resnet/resnet_depth_3_sigma_50.pth (torch_old, 309707 bytes, 4 tensors)

model.0.weight f4 [64, 3, 3, 3]
-0.011370943 0.28788602 -0.02509474 -0.0034051917 0.026835004 -0.026666867 0.020317495 -0.105602466
0.039667733 0.14746301 -0.01785707 0.26975057 -0.1140411 0.24235925 -0.104510166 -0.13766062
-0.037653945 -0.056105252 0.014848381 0.09596127 0.016291983 0.14904706 -0.022571063 0.0073036104
-0.024443012 -0.15604936 -0.039186932 0.030832388 -0.1578004 0.03418678 -0.0036056621 0.12260347
-0.15186173 0.15500332 0.010294028 0.033543933 -0.1474457 -0.115063176 -0.119547166 0.09496222
0.18681061 -0.27317923 0.02291925 0.14415272 -0.07801425 -0.094510674 0.059193827 0.0016517522
-0.24377003 -0.017900443 0.22852845 -0.03561927 -0.15344948 0.06281153 0.20903082 -0.035520364
0.054280404 -0.00038376125 -0.1921352 0.045019347 0.11467086 -0.096003756 0.06885198 -0.06958391
0.100704394 0.11755331 -0.08288567 0.10679758 -0.19192998 0.054004192 0.13120739 -0.061999906
0.10454709 0.03774538 -0.006476035 0.09017667 0.1942684 -0.1520349 0.21909922 0.08093017
0.0075528366 -0.07226686 0.1258535 -0.06750153 0.18286781 0.028442765 0.057319477 -0.12999575
0.05032501 -0.17001024 -0.16756082 0.083517715 -0.037932176 -0.08938578 0.17298625 -0.13948129
-0.13473581 0.038648974 -0.024167255 0.14706938 0.05475945 0.096160024 0.10713065 0.27848357
-0.07076153 -0.03766538 -0.13655134 0.0101408195 0.008582032 -0.07157626 0.072609894 0.016324159
0.02943785 0.0036131097 0.034825463 -0.24146287 0.048243888 -0.059751537 0.040964365 0.25891942
-0.09806174 0.054497346 0.040333524 0.23611106 0.027310787 0.078632385 -0.0004986145 0.14284624
0.24959588 -0.17012584 0.17173007 -0.043428123 -0.27731517 -0.15322858 0.0014833756 -0.037267238
0.1583031 0.07776952 -0.120494865 -0.30314508 0.09339738 0.098796055 0.08039126 0.16560704
0.13294616 0.009696189 -0.21472505 -0.07263825 0.06180829 0.006818311 -0.21163927 0.13174532
-0.0402578 0.033904463 -0.0951136 0.04001234 0.017113693 0.09997775 0.065384336 -0.06086037
-0.13484432 -0.06916836 0.09922408 -0.087529145 0.013066239 -0.07568226 0.08461787 0.17640084
-0.10738505 -0.011419955 0.16114184 -0.1208202 -0.09420231 0.09227722 0.15099671 -0.13755807
-0.18594778 -0.060693473 -0.2263169 -0.2595319 -0.20044634 -0.027521005 0.00504126 0.048487954
-0.06514666 0.093719564 0.09548661 -0.15250911 -0.02578624 -0.051369343 -0.03570676 0.10305785
0.20471196 -0.23741011 0.25405324 0.0768911 0.056721088 0.20992348 0.16324921 -0.06707964
0.07936637 -0.11953707 -0.07164543 -0.23890862 0.07701055 -0.050760448 -0.12993065 -0.044313703
0.051251415 0.11116924 -0.16468224 -0.0676409 0.07190667 -0.016093915 0.15238762 0.084554724
0.29604098 -0.015958287 -0.22032398 -0.09224853 -0.21199237 -0.07419905 0.03621348 0.069594644
-0.2332866 0.025741491 0.19679694 -0.048717413 0.0666492 0.044717584 0.080814816 0.01967386
-0.09860304 0.120199926 -0.29393262 -0.062046193 -0.025659192 -0.07540277 -0.17023012 -0.16198812
0.04635924 -0.06517233 0.010192149 0.064836994 0.10715623 -0.09693245 -0.03632693 0.005960341
-0.07113513 0.24824783 -0.15508181 -0.16667834 -0.21140687 -0.22921987 0.13257898 -0.065141484
00000000: 314d 3abc cc65 933e 7c93 cdbc a329 5fbb
00000010: 15d5 db3c 7974 dabc e070 a63c 1b46 d8bd
00000020: a27a 223d 8b00 173e fd48 92bc bf1c 8a3e
00000030: 618e e9bd 062d 783e 6d09 d6bd e8f6 0cbe
00000040: 063b 1abd 9fce 65bd a046 733c 5887 c43d
00000050: c476 853c cb9f 183e f3e6 b8bc 2053 ef3b
00000060: b63c c8bc 67cb 1fbe 7a82 20bd 3494 fc3c
00000070: 6e96 21be 7007 0c3d f94c 6cbb 8717 fb3d
00000080: a481 1bbe 31b9 1e3e 48a8 283c 5d65 093d
00000090: 01fc 16be 3ea6 ebbd 25d5 f4bd 8d7b c23d
000000a0: 484b 3f3e 26de 8bbe 27c1 bb3c c59c 133e
000000b0: efc5 9fbd d08e c1bd 3a75 723d 9b7f d83a
000000c0: da9e 79be f3a3 92bc 5d03 6a3e 83e5 11bd
000000d0: dc21 1dbe 55a3 803d 2d0c 563e cd7d 11bd
000000e0: 2155 5e3d 9033 c9b9 17bf 44be 3566 383d
000000f0: 8ed8 ea3d 9e9d c4bd 4402 8d3d 0282 8ebd
00000100: 1b3e ce3d cabf f03d f6bf a9bd b1b8 da3d
00000110: 4b89 44be 8033 5d3d 3b5b 063e 9df3 7dbd
00000120: c91c d63d e69a 1a3d eb34 d4bb 8cae b83d
00000130: 4cee 463e 09af 1bbe 8c5b 603e b8be a53d
00000140: c97d f73b a600 94bd bddf 003e 3e3e 8abd
00000150: b341 3b3e cd00 e93c d4c7 6a3d 9b1d 05be
00000160: 9921 4e3d 2a17 2ebe 1095 2bbe 560b ab3d
00000170: c55e 1bbd e40f b7bd 4f23 313e 2fd4 0ebe
00000180: 2ff8 09be 634e 1e3d 68fa c5bc 5b99 163e
00000190: 724b 603d 8cef c43d 5067 db3d 6695 8e3e
000001a0: 6ceb 90bd 0347 1abd 1dd4 0bbe ae25 263c
000001b0: a79b 0c3c 9396 92bd 7fb4 943d 3eba 853c
000001c0: a527 f13c ecc9 6c3b 25a5 0e3d 0b42 77be
000001d0: 629b 453d 07be 74bd 40ca 273d 1691 843e
000001e0: 98d4 c8bd 9c38 5f3d c434 253d 19c7 713e
000001f0: dfba df3c 040a a13d 74b5 02ba 4946 123e
00000200: 1096 7f3e 7835 2ebe 02da 2f3e b0e1 31bd
00000210: 41fc 8dbe f4e7 1cbe d36d c23a 88a5 18bd
00000220: 351a 223e a045 9f3d 03c6 f6bd d535 9bbe
00000230: 2047 bf3d 9655 ca3d 2ca4 a43d e494 293e
00000240: 0a23 083e c4dc 1e3c e2e0 5bbe 5dc3 94bd
00000250: b12a 7d3d 236c df3b f7b7 58be 3fe8 063e
00000260: 5de5 24bd 68df 0a3d ebca c2bd fbe3 233d
00000270: 0432 8c3c 22c1 cc3d 39e8 853d b948 79bd
00000280: a114 0abe 24a8 8dbd ff35 cb3d 7b42 b3bd
00000290: c713 563c 4dff 9abd 224c ad3d 6ca2 343e
000002a0: b1ec dbbd c31a 3bbc 5e02 253e 9570 f7bd
000002b0: 24ed c0bd d7fb bc3d e29e 1a3e 06dc 0cbe
000002c0: 1869 3ebe b899 78bd 9ebf 67be 5de1 84be
000002d0: ce41 4dbe bb73 e1bc 2731 a53b 4e9b 463d
000002e0: 9d6b 85bd 0bf0 bf3d 7c8e c33d 592b 1cbe
000002f0: aa3d d3bc a968 52bd 4041 12bd fe0f d33d
00000300: 03a0 513e a31b 73be 4413 823e 1579 9d3d
00000310: 5f54 683d 2ef6 563e cd2a 273e 0d61 89bd
00000320: d68a a23d dacf f4bd d7ba 92bd 76a4 74be
00000330: b5b7 9d3d 30ea 4fbd 8a0c 05be 4982 35bd
00000340: 01ed 513d b3ac e33d 76a2 28be 5087 8abd
00000350: ce43 933d 63d7 83bc 800b 1c3e 072b ad3d
00000360: af92 973e f4ba 82bc 9c9c 61be ccec bcbd
00000370: 8714 59be acf5 97bd 9654 143d a387 8e3d
00000380: afe2 6ebe d2df d23c 2385 493e e98b 47bd
00000390: 607f 883d c929 373d 3d82 a53d 132b a13c
000003a0: 64f0 c9bd 612b f63d 567e 96be 2624 7ebd
000003b0: 3a33 d2bc c46c 9abd ce50 2ebe 37e0 25be
000003c0: 30e3 3d3d 1279 85bd f9fc 263c 42c9 843d
000003d0: ba74 db3d 8584 c6bd 8ccb 14bd f74e c33b
000003e0: 4caf 91bd ae34 7e3e c4cd 1ebe baad 2abe
000003f0: 0b7b 58be 9db8 6abe c9c2 073e e668 85bd

model.2.conv_1.weight f4 [64, 64, 3, 3]
-0.035614163 0.047714897 -0.015770549 0.012827516 -0.12394065 -0.048548505 0.0059631686 0.004739559
-0.013484774 0.06876681 -0.025582276 -0.0024011303 -0.0042891647 0.0168625 -0.05828776 0.07871208
0.05964958 -0.03524007 -0.017033784 -0.04610457 0.06792336 -0.04776963 0.017335562 0.010412071
0.07010118 -0.048164234 -0.015793053 -0.010289252 0.0028400691 0.03582177 -0.08638469 0.011873751
0.014894596 0.034376077 -0.028989883 0.0031829446 -0.11729507 -0.021611989 -0.013793339 0.0056018247
-0.050399758 0.021170935 -0.014164815 0.001531421 -0.05277891 -0.05736051 -0.027042748 -0.033897057
-0.04383097 0.06721856 -0.018002857 0.07891186 -0.062499132 0.03822068 -0.021842219 0.019515703
0.033706903 0.022987174 -0.028310316 -0.040445138 -0.033678323 -0.0737701 -0.044053175 -0.07043418
-0.05431354 -0.010082777 0.020322716 0.009709278 -0.018276647 -0.020011287 0.033373754 -0.047537606
-0.036253244 -0.015176169 0.015057892 -0.026384296 -0.096050054 -0.038748782 0.061396092 0.0038866247
0.0076919473 -0.045131274 -0.007348014 0.002131465 0.060487393 -0.02766346 0.006952296 -0.017521331
-0.0028295603 -0.009836888 -0.049938038 0.024499154 -0.00448471 -0.038558844 0.00015087663 0.0052698213
-0.024685727 -0.04517873 -0.038652565 -0.047398724 -0.03811354 0.016990151 0.02024274 -0.031612232
0.025975524 -0.03817022 0.02056118 0.032384146 0.0074387873 -0.03844209 -0.042439032 0.024226237
-0.0401865 -0.010476109 0.025744265 -0.033099324 -0.03226792 -0.07820761 -0.039834008 -0.0390395
0.071769245 -0.06259238 0.019140935 0.015846897 -0.047755543 -0.06401142 -0.025224403 -0.013876486
0.020723721 -0.049714137 0.045067776 0.07306003 0.03782927 -0.033621926 -0.0931941 -0.04203231
-0.03675147 -0.02099178 -0.0011260096 -0.0070654904 0.0033431249 0.007667298 0.03634546 -0.049666546
0.005913497 -0.009799558 -0.06149038 0.07189198 0.016883442 -0.00764237 -0.069938004 -0.037323095
0.026650317 0.0051053907 0.01842259 0.013970519 0.018451069 0.04417239 0.016107578 0.022635166
-0.05207775 -0.03668134 0.015307022 -0.06788945 -0.082574815 0.001078996 0.0063554356 0.021340363
0.0075115617 -0.006364374 -0.06269152 0.01927253 -0.050652787 -0.0186081 0.006508709 0.059298225
0.05330579 -0.068550445 0.029398462 -0.048177652 0.056765947 -0.06820782 0.016238932 0.012085094
-0.00045574698 0.043531977 0.014178478 -0.037540607 0.027300403 -0.015660772 0.01564166 0.040877003
-0.019520413 -0.00439841 -0.004758584 0.031339377 -0.027734328 -0.0389945 0.023562029 0.0051277415
-0.0067658657 0.06081547 -0.029218232 0.011817971 -0.014999299 0.031203117 -0.066250704 0.07327528
0.11675206 0.049944166 -0.012010232 -0.020528818 -0.10087338 -0.04757923 -0.069836296 -0.021302411
0.046767276 -0.019318385 -0.028143592 -0.044215146 -0.03614708 -0.011229805 -0.013107918 -0.06752066
-0.026875393 -0.00093858194 0.0072574923 -0.019891415 0.023199337 0.03008683 0.008421238 0.0015828467
-0.06722086 0.014854007 -0.042976726 -0.012741626 -0.0028208538 -0.031917147 0.0066202637 0.053282265
0.044901013 -0.028866751 0.005363749 -0.050059214 -0.01704819 0.039390523 0.01845316 0.037582017
-0.037015893 0.0049330276 -0.044106912 0.041711785 -0.051999167 0.0057104374 0.027098238 0.045101784
00000000: 28e0 11bd b270 433d 3d31 81bc 802a 523c
00000010: 98d4 fdbd ccda 46bd af66 c33b 4d4e 9b3b
00000020: 3eef 5cbc 9dd5 8c3d ec91 d1bc 485c 1dbb
00000030: 1f8c 8cbb 3a23 8a3c 25bf 6ebd cd33 a13d
00000040: 1e53 743d e457 10bd 6f8a 8bbc 25d8 3cbd
00000050: 671b 8b3d 16aa 43bd 4f03 8e3c 6497 2a3c
00000060: 3591 8f3d dc47 45bd 6f60 81bc 4094 28bc
00000070: 7420 3a3b d9b9 123d 75ea b0bd 1f8a 423c
00000080: 7708 743c eecd 0c3d 317c edbc f398 503b
00000090: 6638 f0bd a00b b1bc 75fd 61bc 838f b73b
000000a0: fa6f 4ebd ab6e ad3c 8a13 68bc f6b9 c83a
000000b0: b32e 58bd dbf2 6abd c188 ddbc a4d7 0abd
000000c0: 1a88 33bd e2a9 893d ba7a 93bc 8b9c a13d
000000d0: 17ff 7fbd 4a8d 1c3d 74ee b2bc 65df 9f3c
000000e0: 4010 0a3d 994f bc3c 09eb e7bc cda9 25bd
000000f0: 48f2 09bd c714 97bd 1a71 34bd cc3f 90bd
00000100: e077 5ebd 3b32 25bc d37b a63c aa13 1f3c
00000110: e8b8 95bc b6ee a3bc ebb2 083d cbb6 42bd
00000120: 487e 14bd 77a5 78bc 60b5 763c e123 d8bc
00000130: e4b5 c4bd 0bb7 1ebd 787a 7b3d beb6 7e3b
00000140: bb0c fc3b 92db 38bd 9cc7 f0bb 0cb0 0b3b
00000150: a1c1 773d 7b9e e2bc 16d0 e33b e588 8fbc
00000160: 2570 39bb e62a 21bc d48b 4cbd 73b2 c83c
00000170: 79f4 92bb e1ef 1dbd a334 1e39 77ae ac3b
00000180: b939 cabc 550d 39bd 2752 1ebd 2a25 42bd
00000190: f11c 1cbd ee2e 8b3c 1ad4 a53c d47b 01bd
000001a0: 9fca d43c 6058 1cbd eb6f a83c 3da5 043d
000001b0: 12c1 f33b 7475 1dbd 8dd4 2dbd 1a76 c63c
000001c0: 999a 24bd fca3 2bbc a3e5 d23c 2893 07bd
000001d0: 5e2b 04bd 502b a0bd fc28 23bd e2e7 1fbd
000001e0: c1fb 923d 6f30 80bd 73cd 9c3c 5ad1 813c
000001f0: 519b 43bd 6b18 83bd 68a3 cebc 335a 63bc
00000200: cbc4 a93c 0da1 4bbd fd98 383d 7fa0 953d
00000210: ddf2 1a3d 25b7 09bd 8cdc bebd 122a 2cbd
00000220: b688 16bd f4f6 abbc 9d96 93ba a185 e7bb
00000230: 5418 5b3b f53d fb3b fade 143d 266f 4bbd
00000240: 02c6 c13b 538e 20bc 56dd 7bbd 1a3c 933d
00000250: 254f 8a3c d96c fabb a83b 8fbd 1ae0 18bd
00000260: c451 da3c 1f4b a73b f9ea 963c 9be4 643c
00000270: b226 973c 1cee 343d 0af4 833c 626d b93c
00000280: 7b4f 55bd 2c3f 16bd 4eca 7a3c a009 8bbd
00000290: fc1c a9bd 196d 8d3a 4241 d03b fcd1 ae3c
000002a0: 8c23 f63b 3d8c d0bb 6964 80bd 6de1 9d3c
000002b0: 4c79 4fbd 0470 98bc 0247 d53b b2e2 723d
000002c0: 2c57 5a3d 2d64 8cbd 0bd5 f03c ee55 45bd
000002d0: 6983 683d 8bb0 8bbd 8207 853c 8f00 463c
000002e0: 53f1 eeb9 964e 323d d94c 683c 2ec4 19bd
000002f0: 18a5 df3c 054b 80bc f022 803c a56e 273d
00000300: 46e9 9fbc 8a20 90bb e5ed 9bbb b85d 003d
00000310: 1a33 e3bc b2b8 1fbd 2805 c13c 9d06 a83b
00000320: 32b4 ddbb a419 793d 135b efbc 2aa0 413c
00000330: 9fbf 75bc ae9d ff3c 73ae 87bd 5a11 963d
00000340: b41b ef3d 4192 4c3d 90c6 44bc 0d2c a8bc
00000350: b496 cebd 70e2 42bd 5506 8fbd 6582 aebc
00000360: 0b8f 3f3d 9741 9ebc 648d e6bc f11a 35bd
00000370: f60e 14bd 37fd 37bc 98c2 56bc 4648 8abd
00000380: c929 dcbc 2b0b 76ba 42d0 ed3b 52f3 a2bc
00000390: 890c be3c a878 f63c 3bf9 093c 8677 cf3a
000003a0: 17ab 89bd 395e 733c 5d08 30bd 41c2 50bc
000003b0: 13de 38bb 8ebb 02bd ccee d83b 813e 5a3d
000003c0: 20ea 373d f779 ecbc 63c2 af3b e40a 4dbd
000003d0: a5a8 8bbc f557 213d 152b 973c 9aef 193d
000003e0: fa9d 17bd 3ca5 a13b 73a9 34bd fad9 2a3d
000003f0: 14fd 54bd 9f1e bb3b 20fd dd3c a6bc 383d

model.2.conv_2.weight f4 [64, 64, 3, 3]
0.044777777 0.0022452034 -0.040619887 0.05058777 -0.058839437 0.012502983 0.059553616 -0.010536871
0.00430366 0.0072229425 -0.06659827 0.030288441 -0.01549601 -0.075451456 -0.033122975 -0.0036647897
0.04210523 -0.050357617 0.042804305 -0.09870331 0.037484303 0.009937235 0.09741978 0.0004580025
0.053721633 -0.0012737227 -0.053911626 -0.009047757 -0.0014289919 0.0049254782 -0.049505558 -0.04833537
0.015251932 0.041367512 -0.006469519 0.034186747 -0.048466127 -0.064844176 -0.017809698 -0.038398974
-0.0042731515 -0.022048801 -0.059072334 -0.034720894 -0.019139992 0.031015117 -0.017794773 0.018806651
0.0043866625 0.04896342 -0.028270893 -0.01580031 0.047379043 -0.016958645 -0.03377457 -0.031701773
-0.03859986 0.040218625 0.015941784 0.0017667278 0.03890754 0.00010524235 0.041432213 -0.02077155
-0.03880501 -0.0049555176 0.0030078415 -0.036882922 -0.014834671 0.06429491 -0.014773318 0.003752853
0.0027739475 0.02310673 -0.008148259 -0.052781016 0.028155066 0.0022241878 -0.06902129 -0.07822824
0.014150471 0.026434375 0.040099733 -0.03309114 0.008408819 -0.020747056 -0.0055711563 0.014946758
-0.043672223 -0.03587818 -0.06813555 0.024030577 -0.011184455 0.03219998 0.049062565 0.04284619
-0.0028830955 0.045050923 -0.016984716 -0.04757446 -0.0084502045 0.0016310943 0.023689961 -0.020912072
0.013867709 0.009633638 0.058445495 0.007717056 0.019192427 0.017828738 -0.004993224 -0.0063612787
0.06365449 -0.070881836 -0.04020375 -0.03341315 0.014828783 -0.031031631 -0.089621246 0.010766103
-0.04133726 0.04597587 -0.07552605 0.08018359 -0.09800087 -0.003283126 0.023472128 -0.047998983
-0.06080804 -0.027293876 -0.0012478165 0.016086122 -0.011390599 0.029807156 0.0126450425 -0.030093273
0.066415094 -0.06749213 -0.0092465235 -0.09140407 0.02116845 -0.017713686 -0.008777485 0.084567726
-0.011690654 -0.07632997 -0.044194877 -0.08575794 -0.03836334 -0.0028823516 0.021255635 -0.008549271
-0.0012467932 0.016373735 -0.09453318 -0.02181183 -0.004229359 0.037375588 -0.020279756 0.047246285
-0.0077574067 -0.07364752 0.0041931476 0.062309697 -0.0065479153 -0.029357115 -0.0144670475 0.018638665
-0.0052295253 -0.017996142 0.052216675 0.03729337 -0.09034718 0.020756025 0.019347284 0.0101324385
0.032936085 0.0068654595 -0.017353104 0.016197106 0.067097224 -0.014969178 0.0024578585 -0.032716203
-0.012376081 -0.018776076 0.091102876 -0.05698351 -0.003139066 -0.0606764 0.08546498 -0.035322312
-0.050603084 0.08457033 0.0012915852 0.020369574 0.0667203 -0.016550492 0.08086875 -0.03154492
-0.022023704 0.056626104 0.012219163 -0.0361257 -0.00799674 0.01287859 0.024153411 -0.04360402
0.044460773 0.0008843762 0.0059421733 0.015597663 0.031315345 0.029201303 0.06133643 -0.03634565
-0.026772853 0.0470181 -0.050636787 -0.08549707 0.038054902 -0.05616159 -0.052344505 0.0026503457
-0.04471213 -0.054195557 0.03188079 0.0017811701 0.038298536 0.01093935 -0.028463185 0.004866025
-0.064383276 0.037892494 -0.00948346 -0.0011815652 0.014399458 -0.033739615 0.0050696656 -0.04585144
0.0008237195 -0.034148347 0.0008688889 0.025237815 -0.01195291 0.018104726 -0.030905426 0.0007659704
0.016622549 0.021312311 -0.06061475 -0.0050220587 0.012600399 0.00033741118 -0.055987317 -0.111373805
00000000: e768 373d 4324 133b 0a61 26bd 1f35 4f3d
00000010: 9f01 71bd 50d9 4c3c 7eee 733d d7a2 2cbc
00000020: b705 8d3b 6fae ec3b ac64 88bd 771f f83c
00000030: fae2 7dbc 4b86 9abd f5ab 07bd f82c 70bb
00000040: 8976 2c3d ca43 4ebd 9153 2f3d f624 cabd
00000050: 2489 193d c9cf 223c 0684 c73d 0e20 f039
00000060: 370b 5c3d 0bf3 a6ba 70d2 5cbd 0b3d 14bc
00000070: 034d bbba e865 a13b 57c6 4abd 4ffb 45bd
00000080: 3de3 793c fb70 293d 42fe d3bb 6707 0c3d
00000090: 6b84 46bd 06cd 84bd a5e5 91bc 3e48 1dbd
000000a0: cb05 8cbb b09f b4bc d5f5 71bd 7f37 0ebd
000000b0: 79cb 9cbc 6a13 fe3c 58c6 91bc 6810 9a3c
000000c0: febd 8f3b de8d 483d 5c98 e7bc a76f 81bc
000000d0: 8710 423d dbec 8abc 3457 0abd b8d9 01bd
000000e0: e31a 1ebd 49bc 243d 5898 823c 8c91 e73a
000000f0: 835d 1f3d 8eb5 dc38 d3b4 293d 1929 aabc
00000100: 01f2 1ebd e561 a2bb 351f 453b 8c12 17bd
00000110: 1f0d 73bc 0dad 833d c90b 72bc 6df2 753b
00000120: 1ecb 353b 534a bd3c 4680 05bc e830 58bd
00000130: 74a5 e63c aec3 113b 095b 8dbd 2136 a0bd
00000140: 61d7 673c e78c d83c 9e3f 243d 938a 07bd
00000150: 25c5 093c bbf5 a9bc 3f8e b6bb 3fe3 743c
00000160: a5e1 32bd 00f5 12bd a78a 8bbd c6db c43c
00000170: 013f 37bc 20e4 033d d4f5 483d 7d7f 2f3d
00000180: 51f2 3cbb 5187 383d 8823 8bbc 70dd 42bd
00000190: ba72 0abc 71ca d53a 7311 c23c cb4f abbc
000001a0: 6335 633c 68d6 1d3c 8b64 6f3d 5cdf fc3b
000001b0: 7039 9d3c 930d 923c 339e a3bb 4672 d0bb
000001c0: 495d 823d 7f2a 91bd b0ac 24bd 3adc 08bd
000001d0: 6df4 723c 0c36 febc 588b b7bd 4f64 303c
000001e0: 4251 29bd 3251 3c3d 67ad 9abd 4b37 a43d
000001f0: aeb4 c8bd b729 57bb 9f48 c03c 959a 44bd
00000200: da11 79bd 6897 dfbc c68d a3ba 0bc7 833c
00000210: a39f 3abc 232e f43c 272d 4f3c 2b86 f6bc
00000220: a304 883d 5039 8abd bb7e 17bc 0f32 bbbd
00000230: 7569 ad3c 4b1c 91bc 71cf 0fbc d831 ad3d
00000240: 288a 3fbc e352 9cbd b005 35bd dca1 afbd
00000250: e122 1dbd d6e5 3cbb 4c20 ae3c 3e12 0cbc
00000260: 706b a3ba 3622 863c 9d9a c1bd b9ae b2bc
00000270: 6f96 8abb 2517 193d bb21 a6bc 5285 413d
00000280: d831 febb 83d4 96bd ac66 893b 7438 7f3d
00000290: e58f d6bb 557e f0bc 3207 6dbc 1db0 983c
000002a0: 705c abbb a56c 93bc 27e1 553d efc0 183d
000002b0: f107 b9bd 8a08 aa3c 327e 9e3c 8702 263c
000002c0: fde7 063d a6f7 e03b 1928 8ebc cbaf 843c
000002d0: 456a 893d 4841 75bc 0614 213b 6d01 06bd
000002e0: 0cc5 4abc 49d0 99bc 2594 ba3d 8a67 69bd
000002f0: cab8 4dbb d187 78bd 4308 af3d 21ae 10bd
00000300: 2e45 4fbd 3633 ad3d 684a a93a 18de a63c
00000310: a7a4 883d e694 87bc 849e a53d 3f35 01bd
00000320: 0e6b b4bc c6f0 673d e232 483c 8bf8 13bd
00000330: c204 03bc b900 533c 60dd c53c 219a 32bd
00000340: 801c 363d 7bd5 673a 90b6 c23b 578d 7f3c
00000350: 8544 003d 9237 ef3c e93b 7b3d 2ddf 14bd
00000360: be52 dbbc 0d96 403d 8568 4fbd 1619 afbd
00000370: 75df 1b3d b209 66bd 3167 56bd 6cb1 2d3b
00000380: 1124 37bd 29fc 5dbd 6e95 023d 2776 e93a
00000390: edde 1c3d f63a 333c a02b e9bc 2d73 9f3b
000003a0: 61db 83bd 2935 1b3d 8460 1bbc c0de 9aba
000003b0: b4eb 6b3c 8d32 0abd 701f a63b b8ce 3bbd
000003c0: e1ee 573a 23df 0bbd 26c6 633a 89bf ce3c
000003d0: 23d6 43bc 5d50 943c 602d fdbc 67cb 483a
000003e0: 032c 883c 2897 ae3c 2c47 78bd 1590 a4bb
000003f0: e771 4e3c 90e6 b039 f552 65bd f317 e4bd

model.3.weight f4 [3, 64, 3, 3]
0.02850956 -0.084841706 0.015591189 -0.08014799 0.015655862 0.0019840521 0.083674945 0.07052019
-0.042829055 0.01581199 0.0054903133 0.103024945 -0.037033346 -0.08311592 -0.012439145 0.022255376
-0.01720677 -0.012841351 0.049880955 0.00845338 -0.01199065 -0.034731135 0.03248258 -0.027575966
-0.011435659 -0.01376907 -0.04930925 -0.00914845 0.019965043 -0.014148256 -0.019663937 -0.077164106
0.029928626 -0.00028525235 -0.025352096 -0.021957215 -0.042220227 -0.06061641 0.02652238 0.02474041
0.01781057 0.09828598 -0.025272662 -0.021774348 0.049376775 0.033071663 0.04534554 0.03543128
-0.0009125752 -0.01755587 0.022568077 -0.053259097 -0.014512298 -0.020379294 0.03707338 -0.00012405527
0.01908627 0.03971162 0.04023256 0.03063603 0.043169327 -0.04493408 0.008100902 -0.004261241
-0.0020502936 0.031436805 0.019666532 -0.029520122 0.049537253 0.091737874 0.04530114 -0.04948756
0.039377414 -0.03900023 0.040770113 0.02212117 -0.004471951 0.030211642 0.016441442 -0.018166505
0.093243964 0.03817223 -0.009112339 0.035419196 0.05149476 0.010347732 -0.008314971 0.012286089
-0.10454973 0.02538928 -0.025398236 0.03284197 -0.068552844 0.0026018156 -0.045792114 -0.044246342
-0.012876911 -0.07570229 -0.009356438 0.054941162 0.012020881 0.043015394 -0.068249956 -0.044146147
-0.004600651 0.028537614 -0.048724238 0.004337859 -0.030296564 0.032940507 0.061100382 -0.016397038
-0.013547785 0.083326355 -0.0595673 -0.057178643 0.015625115 0.012515134 0.016098572 -0.00990231
-0.011728906 -0.020801088 -0.025928397 0.03163485 0.042700745 -0.03367027 -0.034243863 0.085353345
0.03958589 0.05861058 0.027325487 -0.039475888 0.003579796 -0.01736659 -0.036352266 0.012682655
-0.025478046 -0.053541474 0.008785666 0.035908118 -0.04250634 0.083691485 0.027574973 0.021391438
0.095230825 0.0029403772 -0.066840775 -0.059803944 -0.0882196 -0.02022235 -0.062064096 -0.009557619
0.016066747 -0.017157255 0.0023180966 0.013982292 -0.018463654 0.06922531 -0.011232252 -0.015346452
0.024087844 0.027394911 0.026564345 -0.0076121693 0.024910938 -0.010643339 0.01675236 -0.005709151
-0.07385356 -0.0053391247 -0.043235395 0.054767404 -0.02778564 -0.01258188 -0.03883499 0.023203855
-0.043803677 -0.0874659 0.015540436 -0.04990265 0.02121685 -0.07562651 -0.010810154 -0.03575488
-0.049208663 0.04495411 0.03658186 0.094670236 0.07238572 -0.0619359 0.09829555 -0.002695126
-0.031789687 0.008488882 0.08429685 -0.030634178 -0.026222568 -0.013265635 0.0018096404 -0.039944384
-0.019933037 -0.054321848 0.058164883 0.04683649 0.0014936449 -0.025970688 -0.06772758 -0.07123048
-0.023446385 -0.04259032 -0.01928996 0.050350584 -0.082235314 0.019582208 0.07772817 -0.032457143
0.08282576 -0.0078103454 -0.04637815 0.052452493 0.027597036 0.01223721 0.078545496 0.017464824
-0.06687356 0.012462719 -0.040199358 -0.026846856 -0.012884156 0.032193493 -0.010189076 -0.0074090115
0.038976714 -0.0019315938 -0.03890124 -0.026634267 -0.0212649 0.046640765 0.023989603 -0.0015492346
0.0067169927 0.00043580582 0.017121978 -0.0093197925 -0.056765407 0.086223505 0.028112486 0.021433959
-0.02167901 0.04931256 -0.0027579516 -0.07281394 0.06662146 0.012764878 0.013686144 0.021735664
00000000: e18c e93c 7dc1 adbd 3072 7f3c a124 a4bd
00000010: b940 803c df06 023b c55d ab3d e46c 903d
00000020: 856d 2fbd 2588 813c 16e8 b33b befe d23d
00000030: 47b0 17bd ae38 aabd 8ecd 4bbc e850 b63c
00000040: 36f5 8cbc 8864 52bc f94f 4c3d 0c80 0a3c
00000050: 6e74 44bc 3c42 0ebd 740c 053d fee6 e1bc
00000060: a15c 3bbc aa97 61bc 7ff8 49bd 61e3 15bc
00000070: bb8d a33c 16ce 67bc 4416 a1bc 3708 9ebd
00000080: e12c f53c ec8d 95b9 33af cfbc 9edf b3bc
00000090: 1eef 2cbd ea48 78bd 7645 d93c 66ac ca3c
000000a0: 79e7 913c 294a c93d 9d08 cfbc 1e60 b2bc
000000b0: 4d3f 4a3d 2776 073d 3fbc 393d 6420 113d
000000c0: e339 6fba 54d1 8fbc b0e0 b83c 3626 5abd
000000d0: fdc4 6dbc 7af2 a6bc 42da 173d d514 02b9
000000e0: cf5a 9c3c a7a8 223d e6ca 243d 69f8 fa3c
000000f0: 52d2 303d cc0c 38bd a5b9 043c e1a1 8bbb
00000100: 385e 06bb e1c3 003d b51b a13c 2fd4 f1bc
00000110: 93e7 4a3d 11e1 bb3d b08d 393d 78b3 4abd
00000120: 364a 213d b5be 1fbd 90fe 263d 7537 b53c
00000130: 7289 92bb 687e f73c 34b0 863c ecd1 94bc
00000140: b1f6 be3d 7c5a 1c3d eb4b 15bc b813 113d
00000150: 2bec 523d 8989 293c 843b 08bc 984b 493c
00000160: 2b1e d6bd 2efd cf3c f60f d0bc 4d85 063d
00000170: 6f65 8cbd 3983 2a3b 8390 3bbd a73b 35bd
00000180: aef9 52bc cd09 9bbd bf4b 19bc fc09 613d
00000190: 3bf3 443c e930 303d a2c6 8bbd 97d2 34bd
000001a0: 0fc1 96bb b7c7 e93c 1193 47bd 9924 8e3b
000001b0: 8030 f8bc a0ec 063d 6544 7a3d 1553 86bc
000001c0: 87f7 5dbc 02a7 aa3d d7fc 73bd 2734 6abd
000001d0: 3e00 803c 470c 4d3c 27e1 833c 4c3d 22bc
000001e0: 992a 40bc 0b67 aabc ca67 d4bc 8b93 013d
000001f0: fae6 2e3d d6e9 09bd 4b43 0cbd bccd ae3d
00000200: d024 223d a611 703d b3d9 df3c 78b1 21bd
00000210: 039b 6a3b 6144 8ebc 1de6 14bd e9ca 4f3c
00000220: 56b7 d0bc 4e4e 5bbd c1f1 0f3c 6414 133d
00000230: 211b 2ebd 7166 ab3d e9e4 e13c 193d af3c
00000240: 6108 c33d 58b3 403b d1e3 88bd fbf4 74bd
00000250: 7aac b4bd 57a9 a5bc ec36 7ebd 8f97 1cbc
00000260: 699e 833c 5f8d 8cbc 35eb 173b fc15 653c
00000270: 1741 97bc 00c6 8d3d 7b07 38bc af6f 7bbc
00000280: df53 c53c 4b6b e03c 789d d93c 816f f9bb
00000290: 0612 cc3c 6661 2ebc 3f3c 893c d413 bbbb
000002a0: 8940 97bd d3f3 aebb 9917 31bd c953 603d
000002b0: b69e e3bc 3b24 4ebc 7011 1fbd 0316 be3c
000002c0: 7c6b 33bd 5221 b3bd 509d 7e3c b966 4cbd
000002d0: f6ce ad3c 12e2 9abd 121d 31bc b673 12bd
000002e0: 068f 49bd cd21 383d dcd6 153d 78e2 c13d
000002f0: f73e 943d 80b0 7dbd 2d4f c93d b6a0 30bb
00000300: e735 02bd f414 0b3c d4a3 ac3d 87f4 fabc
00000310: b6d0 d6bc 1b58 59bc 7531 ed3a b99c 23bd
00000320: 9c4a a3bc 9680 5ebd 4d3e 6e3d 9fd7 3f3d
00000330: 68c6 c33a 7bc0 d4bc c2b4 8abd 49e1 91bd
00000340: a212 c0bc 3073 2ebd fa05 9ebc 6a3c 4e3d
00000350: fd6a a8bd de6a a03c f22f 9f3d c8f1 04bd
00000360: 8da0 a93d eded ffbb 04f7 3dbd 6dd8 563d
00000370: 2e13 e23c 947e 483c 76dc a03d 6412 8f3c
00000380: 01f5 88bd 6f30 4c3c 15a8 24bd f0ed dbbc
00000390: 1118 53bc 53dd 033d 15f0 26bc 4bc7 f2bb
000003a0: 0ca6 1f3d 882d fdba e856 1fbd 1b30 dabc
000003b0: ba33 aebc 630a 3f3d d885 c43c b00f cbba
000003c0: 381a dc3b de7c e439 6443 8c3c 0bb2 18bc
000003d0: d882 68bd f395 b03d 284c e63c 4596 af3c
000003e0: 2e98 b1bc f8fb 493d c0be 34bb 7a1f 95bd
000003f0: d570 883d c723 513c d93b 603c fe0e b23c
