assets/deep_resnet/resnet_depth_3_sigma_25.pth (torch_old, 309743 bytes, 4 tensors)

model.0.weight f4 [64, 3, 3, 3]
00000000: 5058 d2bd d6a4 18be 3482 333d 8f4f 18be
00000010: edd6 053d 770d 2a3d d7b2 4bbc 71b6 40bd
00000020: 3d10 79bb e21c e43c f1b7 86bd e22b 9a3d
00000030: 5f4d 4c3e 887e c5bc c9ee 57be 7537 39bd
00000040: e9ff a2bd f5b0 8fbd f2a8 acbc 18fa 48be
00000050: 555b df3d b186 d03c 5969 e7be 8c4b 4e3d
00000060: bf29 043e a8a4 4e3e 2566 01be 756c 813d
00000070: f49c 13be 206f 843c 0191 783d 98e0 3b3e
00000080: 5396 1bbe 483f f93d 75c9 263e e089 c2bc
00000090: 7757 43bd ec8e cbbd 1704 d2bc 7e96 3dbd
000000a0: ed9d 7b3d dc6d c9bd 3f9a 1a3d 09d1 87be
000000b0: 66cc 433e 59df 23be 850b 10bd bd7e c4bd
000000c0: 30a5 323e 2642 3d3d a6ba ea3c 5624 3cbd
000000d0: 55f7 be3c b9b2 16be 864e 9cbe c552 d7bd
000000e0: 82c3 373e faf0 3ebe 3ed5 af3d b3df ee3d
000000f0: af11 6b3d dbbb 853d a348 113e 8f04 653e
00000100: 739d bd3d 049a 6ebc bcad 4cbd d563 133e
00000110: 1790 89bd 420b 3bbe 8655 1abe ffa2 cebd
00000120: 45df 47be dc46 3ebd 33f4 32be 5a21 4e3e
00000130: 93ed a53d 2232 5ebd 0afb 10bc 86a1 13be
00000140: 00aa 51be 4045 f33d c23a 073e 0330 613e
00000150: 23d4 94bc e0e9 783e 448b bf3d 0c7b 3f3e
00000160: 83b6 593d f99b 433b 6f06 2d3d 9773 7cbd
00000170: 5da4 2c3d c54a 8bbd 77bc 163e a31d 0b3e
00000180: ab36 173e 8e3d d33d 96ec 853c dd92 70be
00000190: 2ab8 2d3e 282e bf3b c931 36bd 0848 09be
000001a0: c397 70bd 1ffd 283e 21b1 7f3d 5d4e 41be
000001b0: 2354 babd 2359 f93d 0f7a a73d f15c 4abd
000001c0: c71d 703e 3f7c d2be 6743 c6bd aeb4 a43d
000001d0: deb6 703d f0bb 9abd 2b55 3d3d ee1e 5bbd
000001e0: 726e 49be 73dd 4b3d 53d9 043e e587 ca3b
000001f0: 3b49 4a3a d3de 313e 7c53 473c e799 653d
00000200: 9698 e63c ac14 433d d765 b1ba 8f12 a4bd
00000210: bb6c 61bc 740c 33bd 10a3 6d3e 4147 eaba
00000220: 5798 45bd 0fb8 92be 9b8a ad3b a3d4 753d
00000230: 8000 51bc c4e7 d6bd 49a2 a13c 27b1 043e
00000240: cff7 9cbd edba fdbd d5ef 9c3c 6743 99bd
00000250: 06f1 e9bd 5f6b 423e b0ff dd3d 4942 663e
00000260: 9036 003d 5288 51be 859c f2be e8da 17bd
00000270: ad07 193c f764 35bd 6254 52bd f10f a53d
00000280: 0583 11be 8837 9ebd 22fc c0bc 72cd 31be
00000290: e00c c23d 0acc 473e ba95 403e 7365 f63d
000002a0: 39b5 0cbe 4f92 64be 6d50 b4bd bde1 ff3b
000002b0: 697f d1bd 8752 8bbc 1845 b43d 7979 cabd
000002c0: 2cdf d43d 5632 2fbe 99a1 243e 71e2 a03d
000002d0: 6977 323e 7183 3f3d a831 efbd 78b3 8f3d
000002e0: bc2f 91be f07d 3bbe 3d67 02be cdaa 1cbe
000002f0: 539c b9bd 8697 b53e 6d3c 003d 2247 c43c
00000300: 6af3 dabd 63df 0b3e 4adb 2cbe 3bc0 8dbd
00000310: 2d2c c93d 4ff8 3f3c b64a 7b3e ce75 fc3d
00000320: 9646 70bd 27b3 a1bd fcd6 833c 924c e2bd
00000330: 497f 7d3d 74a6 10bd e041 503e eeaf d03d
00000340: 8cc5 6bbd ea11 6d3e 0023 1b3e f96a 45bd
00000350: 7537 d0bd e1e0 39bd bcc4 1ebe 916a febc
00000360: b3ff 8a3e 62e8 71bc 25d5 473d 85aa f23b
00000370: 5e82 ce3d 9202 593c ab9c 8d3c 8070 8cbd
00000380: 33eb 0ebb e3e3 0e3e 1a41 db3c 7df5 00be
00000390: 9586 80bd c274 b0bd 7748 64be 7881 2f3e
000003a0: d6f1 e43d 6fde e8bd 9a10 d9bd 1ec5 6c3e
000003b0: f66a 85bd 411f 9abc bc2b 34bd 71b8 7dbd
000003c0: b29c 593c 702c 1fbd 52d9 733d 00fb be3d
000003d0: a310 05bd ecf5 9b3d e54c b1bb 45e2 733c
000003e0: ddca 0c3e f3f5 1b3e c6b9 21be 077a aabb
000003f0: 65a8 77be 09d5 8e3c ec56 093e bca4 553c
-0.102707505 -0.1490663 0.043825343 -0.14874099 0.032675672 0.041516747 -0.012432775 -0.04704899
-0.0038004064 0.027845804 -0.06578053 0.07527901 0.1995139 -0.024108186 -0.21087183 -0.045218904
-0.07958967 -0.07016174 -0.021076653 -0.19626653 0.10906092 0.02545485 -0.4519756 0.050365016
0.1290655 0.20179999 -0.12636621 0.06319515 -0.14415342 0.01616627 0.06068516 0.18347394
-0.15194063 0.12170273 0.16287787 -0.023747385 -0.047690835 -0.099393696 -0.025636716 -0.0462861
0.061429907 -0.09835407 0.037744757 -0.2652667 0.1912094 -0.16003169 -0.035167236 -0.09594486
0.17445827 0.046205662 0.028653454 -0.04593309 0.023311296 -0.14716615 -0.3052866 -0.10513834
0.17945674 -0.18646613 0.085855946 0.11663761 0.05738991 0.06529971 0.14187865 0.2236502
0.09258547 -0.014563087 -0.049970374 0.14393552 -0.06716936 -0.18266013 -0.15071687 -0.10089683
-0.19518764 -0.046454296 -0.17475967 0.2012991 0.08101954 -0.05424703 -0.008848915 -0.14417085
-0.20475006 0.11878443 0.13206008 0.21990971 -0.01816756 0.24307966 0.09352735 0.18699282
0.053152572 0.0029847606 0.042242464 -0.061633673 0.042148937 -0.068013705 0.14720331 0.13585524
0.14766948 0.10314475 0.016348165 -0.23493524 0.16964784 0.0058343597 -0.044481073 -0.13406384
-0.05873848 0.16502808 0.062424783 -0.1887755 -0.09098079 0.121752046 0.08177578 -0.049405042
0.23448859 -0.41110417 -0.09680825 0.080422744 0.058768146 -0.075553775 0.0462238 -0.053496294
-0.19671038 0.049771737 0.12973528 0.0061807507 0.00077166007 0.17370157 0.0121659 0.056054976
0.02814893 0.047627136 -0.0013534379 -0.08011352 -0.0137588335 -0.043713048 0.23206735 -0.0017874019
-0.048240986 -0.2865605 0.005296064 0.06001724 -0.012756467 -0.104934245 0.019730704 0.12958203
-0.07664453 -0.12389169 0.01915733 -0.07483559 -0.11422925 0.18986271 0.10839784 0.22486223
0.031302035 -0.20462158 -0.4738504 -0.037074 0.009340209 -0.04428574 -0.051350005 0.08059681
-0.14210136 -0.077254355 -0.023557726 -0.17363527 0.09475112 0.19511428 0.18807116 0.12031069
-0.13741006 -0.22321437 -0.088044025 0.0078088925 -0.1022938 -0.017007126 0.08802241 -0.0988645
0.10394129 -0.17109045 0.1607727 0.0785569 0.17428364 0.04675621 -0.11679393 0.07016653
-0.2835673 -0.1830976 -0.12734695 -0.1529953 -0.090630196 0.35467166 0.031307627 0.0239597
-0.10690959 0.13659434 -0.16880527 -0.06921431 0.09822879 0.011716916 0.24540219 0.12327157
-0.058661066 -0.07895499 0.016093723 -0.11049761 0.061888967 -0.035314992 0.2033763 0.10189806
-0.057561442 0.23151365 0.1515007 -0.04819772 -0.101668276 -0.045380477 -0.15504736 -0.031056674
0.27148208 -0.014764877 0.048787255 0.0074055814 0.10083459 0.013245242 0.01728662 -0.06857395
-0.002180767 0.1395412 0.026764441 -0.12593646 -0.062756695 -0.0861602 -0.22293268 0.17139232
0.11178939 -0.11370551 -0.105988696 0.23122069 -0.06514542 -0.018813731 -0.04398702 -0.061943475
0.013281988 -0.03886074 0.059533425 0.09325218 -0.03248657 0.07615265 -0.005410778 0.01488549
0.13749261 0.15230541 -0.15793523 -0.005202535 -0.24185331 0.017435567 0.13412064 0.013039764

model.2.conv_1.weight f4 [64, 64, 3, 3]
00000000: 3df3 97bd 7363 543b a654 a53c a3d2 ba3d
00000010: afc4 a7bc 22a2 02bd a80d 0a3d 3963 95bd
00000020: 62ad 17bd 8f1f ca3d e38c 55bd d83c 9e3b
00000030: 7030 543d 915c c5bc f73c e8bb 7021 fbbc
00000040: 04ee 2c3d 06d3 97bd a56e 973c 1512 ffbc
00000050: 612a 69bc dbb6 6bbd a419 8bbc 5956 873d
00000060: 50b0 be3b 17e4 c23d 07c6 e43d 6b43 2a3b
00000070: 2a29 263b e1fe a7bc a7e5 37bc c3f3 ef3b
00000080: 170b 033c b8b9 d1bd ff52 d63c f11c 0b3d
00000090: a780 bc3d d380 703d 450f 923a abbb 9abc
000000a0: 0d82 463c 2af1 2cbd 63d7 37be b684 8c3d
000000b0: c03e 433d a4ff 3a3d fc16 9c3c 4af9 033d
000000c0: 8387 58bd 4d78 89bd f08b c5bd f4bf 933b
000000d0: 2cad 423d 7d3f cd3c 72fc 2dbc 0878 7b3c
000000e0: 79ad 96bc 2f83 55bd 65df 933c c108 dfbc
000000f0: 8687 1fbc 8818 243c acff c9bb 1e46 5bbd
00000100: c2c6 823d 27c6 443d a42d 863d 150a 73bc
00000110: 55fb 73bd ce0a 94bd ce3b 8c3c d235 80bc
00000120: 5204 87ba 4e94 8c3b 7ba6 c83c 7373 613d
00000130: db10 7bbd 60a8 9aba 15f0 5cbb fba9 b13b
00000140: 2e4a 1f3d 4111 5ebc a07b 313d 4c57 1bbd
00000150: fc8b d3bb 9e3f 133c 3d11 08bd 4cc7 f93c
00000160: 9f84 f63b e5db 123b 44ac 44bd 987d f53c
00000170: b4b0 a33d b6a4 2f3c 2982 0e3c 2d0c b53c
00000180: a995 1b3d 0183 10bc 1ba1 1dbd 28b7 6e3d
00000190: 5841 4c3d 57c6 483d fb7c ed3c f05c 56bd
000001a0: a5cd 60bd e069 a0bd fc36 033b 0e4f 2e3a
000001b0: fa24 753d da61 863d f197 12bd 4e75 c6bc
000001c0: 87d8 8c3d bfac 943c f3eb a43d 67c8 cf3c
000001d0: d453 d2bc adc9 5bbd fefb 8bbd e401 1c3d
000001e0: 4f86 c6bc 9a2b 863d 41e8 01bc dabd b1bc
000001f0: ccf1 4e3d a0c4 c03d bc09 6f3d 4f0e 413d
00000200: ceb2 2bbc ce9b 7e3d 3ea8 5e3c dfb6 f4bc
00000210: 30c3 21bb 791b cabc 1977 6abc e027 8b3d
00000220: 86cb a3bb 20c7 a2bd 0a47 65bd 3ece a2bc
00000230: 41e1 45bd 391e 63bd 0df2 023d 19d0 2bbd
00000240: f841 283d cf40 a53c 9eb9 353c aeb4 16ba
00000250: 70a8 5c3d 8637 92bc 14a6 17bd 661b 0abc
00000260: c0cc 7f3d 5f89 1bbc e4d8 143d 4ba7 a33c
00000270: ce47 8cbc ab38 063d fd46 b33c 66c3 89bb
00000280: 92a4 563d f2b5 e7bc 687f 2abd 28bc 843d
00000290: c558 1fbd 034e 633c 34e4 263c ee28 5c3d
000002a0: 2267 5abd eac2 b73c 5bf9 d03d 56e6 093d
000002b0: fa56 9f3d 4a63 0cbd ed98 773b e36e 81bc
000002c0: ad66 053d 34d5 64bc df56 41bc db88 203d
000002d0: b976 c8bc be42 b93c eebe ccbc c3d7 823c
000002e0: 9ede 04bd f8bc 60bc 0726 663d 99b4 b93b
000002f0: 2e2d 1c3d 7a4b 393c 3748 473d bd62 75bd
00000300: ebe4 f8bb 6fc3 d0bc d063 36bb 3a38 ffbc
00000310: 9467 e4bc a427 953d 7a34 41bb 44e1 44bd
00000320: 547c 5d3c 8236 b73c 2add 2f3d 2deb aa3d
00000330: c65b c2bc 995f 0fba eaf4 1c3d 2f72 74bd
00000340: 3245 d4bc 0463 50bb 3a98 9ebb eaeb cf3d
00000350: 2e32 e0bc 8a58 f63b 467f f6bc a030 ebbc
00000360: 2df1 42ba e166 c73c 63e9 353d 71d3 02bd
00000370: 206c 13bd 4151 5bbc 067d 15bc 51f7 9c3d
00000380: 0cec 4e3d b59b ef3c bedf 2c3c dec8 b2bd
00000390: aa1f 4a3b 6462 4b3d ef54 f7bc 36e0 423d
000003a0: deff c0bc 167f 793d f2e3 a1bc 259d 7f3b
000003b0: af0c 54bd d499 fdbb fdab 56bd c138 aabc
000003c0: 14fb 2cbd 957b ff3c 9911 8b3d 731f a63b
000003d0: 78bf b539 ccdd 59bc bc45 b13d cd23 4fbd
000003e0: 7b1f 773c e2cc afbd feb7 ffbc a428 56bd
000003f0: b4fe 9a3b 5329 b03c 3eba 2e3d 69ff 4c3d
-0.07419441 0.003240791 0.020181965 0.09122207 -0.020479528 -0.031892903 0.03370443 -0.07294316
-0.037030585 0.098693006 -0.052136313 0.0048290305 0.051804006 -0.02409199 -0.0070873457 -0.030655593
0.042219177 -0.074132964 0.018485377 -0.031136552 -0.014231295 -0.05754743 -0.01698 0.066082664
0.005819358 0.09516161 0.11170583 0.0025980126 0.0025354126 -0.020507278 -0.011224187 0.00732276
0.0079982495 -0.10240501 0.026162622 0.033963148 0.09204226 0.058716606 0.0011143467 -0.018888315
0.012115967 -0.04222218 -0.17953257 0.0686125 0.047667265 0.045653954 0.019053929 0.032220162
-0.05286361 -0.06712399 -0.096458316 0.0045089666 0.04752843 0.025054688 -0.01061927 0.015348442
-0.018393265 -0.05212706 0.018050859 -0.027225854 -0.009736901 0.010015614 -0.0061645117 -0.053533666
0.06385566 0.048040535 0.06551674 -0.014833947 -0.05956586 -0.07228623 0.01711836 -0.015650664
-0.001030097 0.0042901402 0.024493447 0.05504174 -0.06129537 -0.0011799447 -0.0033712436 0.0054218746
0.038889103 -0.013553918 0.04333079 -0.03792505 -0.0064558964 0.0089873355 -0.033219565 0.03049054
0.007523134 0.00224089 -0.048015848 0.029967114 0.07992688 0.0107204225 0.008698025 0.022100532
0.037984524 -0.008820296 -0.03848372 0.05828014 0.049867004 0.049017277 0.02899026 -0.052334726
-0.054883618 -0.07832694 0.0020021787 0.00066493533 0.059849717 0.065616325 -0.035789434 -0.024225857
0.06877237 0.018148778 0.08052816 0.025364114 -0.025674738 -0.05365913 -0.06835173 0.03808774
-0.024233965 0.06551285 -0.007928909 -0.021696974 0.050523564 0.09412503 0.058358893 0.047132786
-0.010479642 0.062160306 0.013589917 -0.029872356 -0.0024682991 -0.024671303 -0.014310622 0.06794715
-0.004998627 -0.07948136 -0.05597595 -0.019873735 -0.048310522 -0.055448744 0.03196912 -0.041946504
0.041078538 0.020172505 0.011091618 -0.0005748969 0.053871572 -0.017848741 -0.03702362 -0.008429384
0.062451124 -0.009493201 0.036339656 0.019977232 -0.017124083 0.032768887 0.021884436 -0.0042042015
0.05240304 -0.028285 -0.04162541 0.064812005 -0.038903017 0.01387358 0.010186244 0.05374997
-0.05332101 0.02243181 0.10203811 0.03366693 0.07780261 -0.034274377 0.003778036 -0.015799945
0.032568622 -0.013966847 -0.011800497 0.039193016 -0.024470674 0.022614833 -0.024993386 0.015972024
-0.032438867 -0.013716929 0.05618861 0.005667281 0.038129024 0.011309499 0.048652854 -0.059908617
-0.0075956485 -0.025483815 -0.002783049 -0.03115474 -0.027881421 0.072829515 -0.0029480741 -0.048066393
0.013518412 0.022364859 0.042935528 0.083456375 -0.023725402 -0.0005469262 0.038319506 -0.059679206
-0.025911901 -0.00317973 -0.004839924 0.10152419 -0.027367678 0.007517879 -0.030089986 -0.02870971
-0.00074364507 0.024341049 0.044412028 -0.031939927 -0.035991788 -0.013386072 -0.009124046 0.07664359
0.05051808 0.029249052 0.010551391 -0.087297186 0.0030841627 0.04965438 -0.030191867 0.047577105
-0.023559507 0.060912214 -0.019762013 0.0039003578 -0.05176991 -0.007739285 -0.052410115 -0.020779015
-0.042231634 0.031186858 0.06790466 0.005069667 0.00034665666 -0.013297509 0.08655879 -0.05057125
0.015083189 -0.08584 -0.031215664 -0.05228485 0.00473007 0.02150408 0.042658083 0.050048266

model.2.conv_2.weight f4 [64, 64, 3, 3]
00000000: d064 b03d 4bf0 933c 95b4 f2bc 516b 083d
00000010: 8247 3fbd 9b0c cabd 0f78 00bd de76 f2ba
00000020: e46f 2d3d 507b 3f3d 6ee7 00bd 1429 82bd
00000030: 1b6d 5c3c 8299 683d 140e b7bc f08f 24bd
00000040: 2591 06bc 3622 3b3d 3409 163d 8e82 573b
00000050: 3a21 90bd e4f8 a43c 6df6 78bd 79ff a23a
00000060: 138e 31bc d92c 823b a77b 44bd da98 f4ba
00000070: 1eb0 30bc 9026 b6bd bac3 703d 0109 b43c
00000080: 88c0 0c3d 5ac0 1c3d 2fac 493d 82ae 783c
00000090: f14e 18bc 6b11 29bd def2 c8bc 5177 fb3c
000000a0: c43e 153b a051 263a e585 9a3d 2724 c6bd
000000b0: 36ab 913d 04df a23d 403d 8dbc afc3 343d
000000c0: 4275 ec3c 7161 d6bd 93fd 6c3c 1eef 5a3c
000000d0: ede8 85bd 2e9b 81ba 86bd 223d 3a99 d0bb
000000e0: 8875 85ba 63b6 eabb 5044 1f3d 564b bdbc
000000f0: 32f2 513d b940 293d 9146 debb 09f7 89bc
00000100: fbd1 6ebc f8c9 113d 44f3 8a3b 2a47 86bb
00000110: dad2 30bd e2b1 c53d 2b99 b93c 0f2e 93bd
00000120: dc82 473d cee6 093b 4448 bfbc e18a 593d
00000130: 0ecd 723c a688 2d3d dd03 af3b 837a 743c
00000140: be8c 1b3d b412 07bd cb8a 2f3d ad17 d53d
00000150: f040 1ebd 2a88 67b9 07ed 903d 2127 283d
00000160: 549f be3c 7393 ee3d 7aff 0c3c 2903 ffbb
00000170: aaef 3fbd ddc8 0e3d 6406 3a3c e50a 873c
00000180: 8078 32bc e3c2 073c ee04 eabc 3296 ee3c
00000190: ecde e6bc 4254 303d cd08 183d 8d7e 7e3d
000001a0: 9077 573d 99b0 43bc a1a6 2ebc 0f91 183d
000001b0: 27fd 873c 74ab 3b3c 6c5c ea3c cdf0 01bd
000001c0: b546 ac3b 6882 5e3c 330a fb3a 1cf1 fb3b
000001d0: bf62 8cbc cd80 cb3c b1b6 aabc 3145 28bd
000001e0: c383 c4bc d430 72bc 93d6 4dbc cffc f03c
000001f0: e9a5 823d 9f2a 533d 3797 a8bd 5a4f 24bc
00000200: 2e85 d13d be21 a73d 5bcf 743d bab8 31bb
00000210: b11a db3c b6f6 57bd a749 d0bb 8fbe dd3b
00000220: 5e66 1b3d dcad a2bd 2190 57bd 8381 1abc
00000230: 50d1 0fbd badd d23d 43a8 f63c 393f 7cbd
00000240: 9dbb 41bd c25c 5fbb 211a b1bc fe9a 2c3d
00000250: 63c1 503c 9868 e8bb 22bb 00bd fb71 eb3b
00000260: 01ef 6abd 25e7 bbbb 7c3b 593b a727 d73b
00000270: 3c37 94bd 275c cdbc 9b31 633c 842a cd3c
00000280: 34b5 a2bd 2de5 8f3c 3064 6cbd c61d 6cbc
00000290: 6cf4 6f3c 4172 5fbc 64b2 07bd 318c 133c
000002a0: a02f b43b 5529 2bbc b407 d13c 0da4 8e3c
000002b0: 19f5 6f3d 8dac b0bc 046d 523c 86f9 263c
000002c0: 3991 8a3c c2d2 e5bb 7017 43bd 8495 97bc
000002d0: f6bf 00bd 8cb4 41bc 7011 52bd d5bd 183c
000002e0: 36a7 a03a f633 8dbb 6a37 3a3b 717e a03c
000002f0: ba65 08bb 3858 2abc 4570 3f3c 4989 57bc
00000300: 2416 fa3c 8783 0a3c b5ea 3cbd 9801 10bd
00000310: 5687 ad3d ba0f 34bd aa2c 613d 6d15 d73c
00000320: 9eaf eb3c d3d5 3bbb 2ace cc3c 2843 5a3d
00000330: 1e81 11ba c2ff 84bd 670d 563d 51c5 573b
00000340: 7d25 ccbb 1455 f9bb 8fd8 b7bc 1057 d03d
00000350: e58c 4bbb cb46 33bc 6be7 1e3b c164 39bd
00000360: 9abe b43c 0304 ba3d 31a5 a4bc 4285 1b3d
00000370: d09e e5bc bd64 003d 6872 5dbc b29f 87bd
00000380: 8525 01be 3bcd d7bc f9d6 423c d0b9 a23c
00000390: f6a1 233d 0064 8a3d 26b4 31bc bd12 d4bd
000003a0: ee2a 20bb cbed b73c 3989 3fbc 5826 35bd
000003b0: b60a 0c3d 936f ab3d 26d1 323d 6edd 99bd
000003c0: 4585 05bd 2543 96bc e6bd cd3c adb1 15bd
000003d0: 0d47 49bc 175a aabc 49e7 58bd 3b06 633d
000003e0: e9d1 f43b 2112 4bbb e3b0 0cbc ad1d 833c
000003f0: 47d7 dfbc 03a9 8dbd 539e cc3d 222a 413d
0.086129785 0.018058917 -0.029627124 0.03330547 -0.046699055 -0.098656856 -0.031364497 -0.001849856
0.042343035 0.04674846 -0.03147071 -0.06355491 0.013453747 0.05678702 -0.02234558 -0.040176332
-0.008213316 0.045686923 0.03662987 0.0032884213 -0.070375875 0.020138212 -0.060781885 0.0012435756
-0.010837096 0.0039726314 -0.047969487 -0.0018661276 -0.010784177 -0.08894074 0.05878041 0.02197695
0.0343633 0.03826938 0.049236473 0.015178325 -0.009296165 -0.041276377 -0.02452987 0.030696543
0.0022773007 0.00063445605 0.075450696 -0.09674864 0.07112734 0.07952693 -0.01724112 0.04413193
0.028864507 -0.10467804 0.014464754 0.013362674 -0.06538568 -0.0009888166 0.039731525 -0.0063659223
-0.0010182122 -0.0071628555 0.038883507 -0.023107212 0.051256366 0.04132149 -0.0067833145 -0.016841428
-0.01457643 0.035593003 0.0042404253 -0.004097839 -0.043169834 0.09653069 0.022656044 -0.07186519
0.04870878 0.0021042111 -0.023349889 0.05311096 0.014819397 0.042366646 0.0053410367 0.014921787
0.03797602 -0.03297682 0.042856973 0.104049064 -0.038636148 -0.00022080602 0.070764594 0.04105294
0.023269333 0.116492175 0.008605832 -0.007782359 -0.04685942 0.034859527 0.011354063 0.016484687
-0.010892987 0.008286211 -0.028566804 0.029124353 -0.02818247 0.043049105 0.037117768 0.062132407
0.052604258 -0.01194396 -0.010659845 0.037247714 0.016600205 0.011454452 0.028608523 -0.031723786
0.0052574524 0.013580896 0.001915282 0.0076886546 -0.01713693 0.02484169 -0.020839067 -0.04108161
-0.02398861 -0.014782149 -0.0125633655 0.029417424 0.06379301 0.05155432 -0.08231967 -0.0100286845
0.1023048 0.08160733 0.059768062 -0.0027118162 0.026746126 -0.052725516 -0.0063564363 0.006767101
0.03793942 -0.07943317 -0.052627686 -0.009430292 -0.035111725 0.10296197 0.03010953 -0.06158373
-0.047298063 -0.0034082388 -0.021618905 0.04214 0.0127414195 -0.0070925467 -0.031428464 0.0071852184
-0.057356838 -0.0057343417 0.0033147028 0.006566006 -0.072370976 -0.025068356 0.013866807 0.025044687
-0.07944718 0.017565334 -0.057712734 -0.014411395 0.014645677 -0.01363808 -0.03312911 0.009005592
0.0054988414 -0.010446866 0.025516368 0.01741221 0.058583353 -0.021566654 0.012843374 0.010191327
0.01691495 -0.0070136497 -0.047629774 -0.018503912 -0.03143307 -0.011822831 -0.05128616 0.009322603
0.0012256864 -0.0043091727 0.0028414377 0.019591542 -0.0020812587 -0.01039701 0.011684482 -0.01315529
0.030528136 0.00845421 -0.04612227 -0.03515777 0.08473079 -0.04396031 0.054974236 0.026255334
0.028770264 -0.0028661385 0.02500065 0.0532867 -0.0005550551 -0.064940944 0.052258875 0.0032924006
-0.006230055 -0.007609019 -0.02244213 0.10172856 -0.0031059321 -0.010942171 0.0024246823 -0.045262102
0.022063542 0.090827964 -0.0200983 0.03796888 -0.02802983 0.03134607 -0.013516046 -0.06622256
-0.12611969 -0.026342979 0.011892074 0.019863993 0.03994938 0.06757355 -0.010846173 -0.103551365
-0.002443965 0.022452256 -0.011690431 -0.04422602 0.034189902 0.083708905 0.04365649 -0.075129375
-0.0325978 -0.018342564 0.025114965 -0.036546398 -0.012285006 -0.020794911 -0.052954946 0.055425864
0.0074713123 -0.0030986147 -0.008587095 0.016005361 -0.027324332 -0.06917002 0.099911354 0.04715932

model.3.weight f4 [3, 64, 3, 3]
00000000: 475d d9bb 9354 043d 5400 403d 1932 be3c
00000010: 0338 dbbc fa56 943d aaed 20bd 36cc 65bc
00000020: e836 7bbd f635 c63d 0ac4 df3c c89e 10bd
00000030: 108e 833d dde8 fb3c fac6 e43c 5fe0 dd3c
00000040: 7975 83bd a52a 193c 6e64 a1bc 995f a33d
00000050: 64b4 16bd 67a7 6fbd cf2d 0c3d 13f6 35bd
00000060: c03d 113d bd96 a2bd 7a78 193d 5c1c 8b39
00000070: c09d 98bc 622e 10bc 9b59 98bc 3576 90bc
00000080: 922a 3abc f5f3 a83c 2983 86bc 5fa1 fb3c
00000090: 1946 14bd 2432 9e3c 3b32 ca3d 360f 113d
000000a0: 0db5 5bbc 7230 2238 6737 b33c 9790 903c
000000b0: f2cb 00bd 9f3b ffbc 30d7 a1bc 9e94 1c3d
000000c0: 2968 8f3d b050 c5bc 254b 1abb 40f7 373b
000000d0: 46ab 80bd 0a07 573d 9603 33bd eb8f 88bb
000000e0: 8465 aebc 19a9 493d d7dc 37ba dd59 c93c
000000f0: dee6 e13b 1caa c8bc a75b fbbc 0040 44bd
00000100: 7eb5 023d cb24 43bd f9c2 c5bc 8f85 38bd
00000110: c29b 19bd 1ef6 88bc ca39 0e3d 6aff 503d
00000120: 3d94 433d 1cbe 7ebb 5f51 853c acd1 38bb
00000130: a3fa b43c 120e 38bd 7730 223c f7f8 56bd
00000140: ebf3 a33c b6ff c0bb abb5 923c 5afa 433d
00000150: 74f3 65bd 7a18 a93d e8a9 603c b4b1 8fbd
00000160: 1a96 2dbd 59a9 d83c 3fe3 083d 54ac a13a
00000170: 64d0 c6bc 9b49 00bd 0090 143d 3ef9 a23c
00000180: 7ef8 a8bb a19a 4bbc 41d5 a63c 12d6 cb3d
00000190: f89d 033d fe51 243c 5900 723d b4ed 63bd
000001a0: 8b07 4e3d 909e cc3b 7b0a 603c acd0 16bd
000001b0: 7a91 b33b 4385 2ebd 4bd0 92bb ad4b b2bd
000001c0: 8c67 f23c ce5a 8b3b 76bd 57bd 3a7e 84bc
000001d0: d9f0 ac3c cb99 c23a 46dd 313d fc57 be3d
000001e0: 780f b3bd 3920 e43c 0549 78bd 62a7 53bc
000001f0: a746 a6bc af08 75bc 8807 9b3c 762d 3b3d
00000200: 1d5d ca3c fef5 063c cced b03d db64 143c
00000210: 109f e83c 40d1 1c3d 51de 163c eec1 9a3c
00000220: 928a 9bbc 0916 ef3c 5de3 aabc c59b f0bb
00000230: 2ad7 3cbd 5575 9abb 971a 17bd 2ff9 7e3c
00000240: c88d a4bc d6d8 383d e3ad e53c 2fdf 83bc
00000250: 5dc7 ce3b 827c 3e3d b417 6fba 3c40 5d3b
00000260: fa84 c7bb 085e 6f3d 284f 9f3a 0e2a 56bd
00000270: ec35 21bd 6bb9 8dbc f3ea 163d ea42 533d
00000280: ca71 183d d3bf b03b 9946 86bb 2d13 043e
00000290: c8cd 85bc 3de0 6bbb 483d 0abd 7659 6b3d
000002a0: 94ac 57bd 3fa1 2cbd 2410 b7bc 5233 083d
000002b0: e9db 5f3d 2905 bf3b cf47 90bc 1207 ed3b
000002c0: bf41 fc3c d8c5 6739 9b7b 0c3d 164f 6fbd
000002d0: 5980 363b 1d7c 71ba 4214 563b b71a a2bd
000002e0: d6ce aabc c920 ddbb 15d2 853c d88d f8bc
000002f0: e221 2fbc abc4 bbbb d070 adbd 57b6 07bb
00000300: b657 e0bc 9a1b a6bd 6a95 9cbd 3f66 423d
00000310: a6b4 d53d 0cea c2bd a709 3b3d f00a b6bc
00000320: 5f63 38bd 4fbb d33a 189a d33c 4dd1 b13c
00000330: 1634 26bd 9dbb babc a80e 2abd d138 c23c
00000340: 55d3 353d 1e77 7d3d 18e9 81bd dfd9 7f3d
00000350: 684d efbc 06bf 83bd b05b 94bd 8d53 b93d
00000360: 1699 103c 91a4 6e3c 5ce8 373d 1f19 c63c
00000370: 61bb 08bd 40f3 70bc 65b9 da3d fda4 6ebd
00000380: 7cc3 5abb 42e7 303d 0b64 bf3c 134a 7fbd
00000390: 8e9e 56bd 004c a1bb dc48 023d f5c3 833d
000003a0: 9e11 2d3b eedf 95bb b89f 7bbc fcb2 27bb
000003b0: 56f4 dc3c 5892 cbbd 21b1 1ebd 29ac 703d
000003c0: f449 62bc d63e 7d3c 8aa3 e5bb 2c55 273d
000003d0: fd04 92bd 6b73 e5bb 79af 09bd afc1 5abc
000003e0: f3b3 493d f2e6 eebc 3915 46bd 3711 aebc
000003f0: 0672 9bbd 386e bebd b498 16bb 4bef 873c
-0.006633434 0.03230722 0.046875313 0.023217248 -0.026760107 0.07243152 -0.039289154 -0.014025738
-0.06133166 0.09678261 0.027315158 -0.035307676 0.06423581 0.030750686 0.02792691 0.027084528
-0.064188905 0.009348546 -0.019701209 0.07977218 -0.036793128 -0.058509257 0.034223374 -0.044424128
0.03545928 -0.07938907 0.03746841 0.00026533275 -0.018629909 -0.008800121 -0.018597415 -0.01763449
-0.011362689 0.02062414 -0.016419964 0.030716596 -0.036199663 0.019311018 0.09872862 0.035414897
-0.013409865 3.8668928e-05 0.021877004 0.01764707 -0.031444497 -0.03115636 -0.01975593 0.03822767
0.07002289 -0.024086326 -0.0023543325 0.0028070956 -0.06282668 0.052496947 -0.04370459 -0.004167547
-0.02128864 0.04923353 -0.00070138037 0.024578983 0.0068939766 -0.024495177 -0.030683352 -0.047912598
0.031911366 -0.04764251 -0.024140822 -0.045049246 -0.037502058 -0.01671892 0.03472308 0.05102483
0.047748793 -0.0038870638 0.016274152 -0.0028201146 0.02209217 -0.044935293 0.00989925 -0.052483525
0.02001377 -0.005889858 0.017908892 0.047846176 -0.056140378 0.08256622 0.013712384 -0.07016316
-0.042379476 0.026447939 0.033419844 0.0012334683 -0.02426929 -0.031320196 0.03627014 0.019894239
-0.0051565757 -0.012427003 0.02036536 0.0995294 0.032133073 0.010029314 0.059082363 -0.055646613
0.050300162 0.006244488 0.013674374 -0.0368201 0.0054799886 -0.042607557 -0.004480397 -0.0870584
0.02959039 0.004252768 -0.05267092 -0.01617347 0.021110939 0.0014846859 0.043423913 0.092941254
-0.08743185 0.027847396 -0.06061651 -0.012918325 -0.020297362 -0.014955684 0.01892449 0.04569765
0.024702603 0.00823736 0.08639106 0.009057249 0.02839616 0.038285494 0.009208278 0.018891301
-0.018986974 0.029185312 -0.020860368 -0.007342788 -0.046103634 -0.004713694 -0.036890592 0.01556234
-0.020087138 0.045128666 0.028037017 -0.016097633 0.006310387 0.04650546 -0.00091206585 0.003376021
-0.00608885 0.058439285 0.0012154328 -0.0522862 -0.039358065 -0.017300328 0.03684516 0.051577486
0.037217893 0.005393961 -0.0040977714 0.1289794 -0.016333476 -0.003599181 -0.03374985 0.057458363
-0.052654818 -0.042145964 -0.022346564 0.033252068 0.054653082 0.0058294726 -0.017612366 0.007233509
0.030793069 0.00022103579 0.034297567 -0.05842503 0.0027847497 -0.0009211915 0.0032665883 -0.07915252
-0.02085058 -0.006748293 0.016335526 -0.030341074 -0.010689231 -0.0057302318 -0.08468783 -0.0020708048
-0.027385574 -0.08110733 -0.07645686 0.04746079 0.104348466 -0.09517297 0.045663502 -0.022222012
-0.045016643 0.0016153845 0.025830314 0.021706248 -0.040577017 -0.02279454 -0.041517884 0.023708733
0.044390995 0.061881177 -0.06343287 0.062463637 -0.029211715 -0.06432919 -0.072440505 0.09049139
0.008825561 0.014565603 0.04489933 0.0241819 -0.033381823 -0.014706433 0.106798925 -0.058262814
-0.0033380678 0.043189295 0.023363134 -0.062326502 -0.052397303 -0.00492239 0.031807765 0.0643386
0.0026408206 -0.0045738136 -0.015357904 -0.002558886 0.026971977 -0.09940022 -0.038743142 0.058757935
-0.013811577 0.015456876 -0.0070080208 0.04085271 -0.07129858 -0.0070022843 -0.03361461 -0.013351842
0.04924388 -0.029162858 -0.048360083 -0.021248443 -0.075901076 -0.09298366 -0.0022979202 0.016593596
