assets/deep_resnet/resnet-model.onnx (onnx, 900302 bytes, 8 tensors)

model.0.weight f4 [64, 3, 3, 3]
-0.1425474 0.06473796 0.016050965 0.070617266 -0.05093274 0.039358836 -0.075324826 0.10287139
-0.013195655 0.11352459 -0.020920826 -0.06126333 -0.047364313 0.067988865 -0.020504383 -0.0035131134
-0.038192384 -0.18044792 0.10581308 -0.16104816 0.3738718 0.06747583 0.05573317 0.16127765
-0.14927135 0.05106316 0.09098233 0.065167606 -0.20669647 0.1359136 -0.016259197 -0.020359073
-0.124511346 -0.30508712 -0.034547444 0.122064374 0.07787526 0.077854514 0.046713606 0.08533539
-0.16470845 -0.14090462 0.0010717242 -0.08139516 0.08334901 0.18875864 0.15342304 -0.11397015
-0.024612922 -0.030048791 0.058453396 -0.1131801 -0.010235768 0.13500513 0.10553893 -0.19641662
-0.02001623 0.112813085 -0.10991257 -0.018982353 -0.027375814 0.002903857 0.003518961 0.16554667
0.04049783 0.094208844 -0.06819053 -0.08780636 -0.10903197 0.12708232 -0.007233666 -0.10440967
-0.0456661 0.08050761 -0.08766555 0.21968815 -0.13864848 -0.01017615 0.13632396 -0.2274098
-0.12634972 0.14241827 0.11103248 -0.0536934 0.1858448 -0.045808878 -0.116132766 0.035010543
0.025763977 -0.063609086 0.025790554 -0.08286842 -0.022492958 0.14653875 0.00012880529 -0.054418102
-0.09849423 -0.120019525 -0.016641326 0.040017787 0.17942677 -0.21794754 0.0563214 -0.14707951
-0.11149673 -0.0026985146 0.11618845 0.14781655 -0.020317597 0.022134287 -0.22536437 0.2036708
0.003465096 -0.1367723 -0.055928443 0.1738835 0.18283534 0.109675564 0.0098846 -0.054986358
-0.06284752 -0.18738855 0.14245676 0.023802387 0.026141027 -0.28204122 0.028428925 -0.14762837
-0.0604374 -0.021615384 0.1311727 -0.1131007 0.12984541 0.078651965 -0.014844746 -0.26716474
-0.007318969 0.10697647 0.054917812 0.0510751 -0.08652528 -0.0805029 -0.0056562177 -0.028120454
0.24326561 0.21565352 -0.05905064 0.011149132 -0.078693554 0.2092393 0.09803725 0.03343831
-0.22524017 -0.054780096 0.025260719 -0.10292571 -0.020094378 -0.0312561 0.1765015 -0.059264895
-0.042956777 -0.077462666 0.10582281 0.12135722 -0.13489681 -0.17860745 -0.075787224 -0.0496912
0.028473375 -0.013463391 0.018044345 0.072107404 0.018887663 0.162654 -0.1452634 0.18484788
-0.035431236 -0.07142725 -0.21451919 0.16907553 -0.0347646 -0.14645317 -0.16874795 0.25004488
0.06616868 0.106719196 0.03302045 -0.002491243 -0.23983991 -0.023153214 -0.06986589 0.17799382
-0.10869931 0.37829328 0.2056536 0.22104847 -0.06235622 -0.06937128 0.08568165 0.13609694
0.079466626 -0.040230647 -0.012148653 0.0307669 0.11610352 -0.03607917 -0.057765093 -0.23003249
-0.16834973 0.11144168 -0.10919034 -0.06753755 -0.06294962 0.02903993 -0.04610194 -0.14304277
0.049416363 -0.29709467 0.07300146 -0.08698837 0.04631898 0.03735291 0.07709029 -0.10145829
-0.22322719 -0.079771355 -0.039490435 -0.06849132 0.10021491 0.049693894 0.19675167 -0.11692567
-0.03288602 -0.19045293 0.08244236 0.16175221 -0.055465117 0.07578592 0.17212644 -0.0057509644
-0.0667463 0.119175695 -0.093526386 -4.493938e-05 -0.17288928 -0.04226154 -0.018557496 0.03429075
0.20689374 -0.014990666 -0.11893079 0.07984285 -0.32906502 0.29685545 0.06247576 -0.10029379
00000000: f2f7 11be 5695 843d 507d 833c c99f 903d
00000010: d99e 50bd bb36 213d e743 9abd 3cae d23d
00000020: 9732 58bc 957f e83d 2762 abbc 42ef 7abd
00000030: 1501 42bd bf3d 8b3d cff8 a7bc 433c 66bb
00000040: 9e6f 1cbd 57c7 38be 87b4 d83d cfe9 24be
00000050: 206c bf3e c530 8a3d 7748 643d f825 253e
00000060: 97da 18be 9b27 513d f254 ba3d 9876 853d
00000070: 3da8 53be ef2c 0b3e 0232 85bc 12c8 a6bc
00000080: ceff febd 6134 9cbe 9f81 0dbd e3fc f93d
00000090: 107d 9f3d 3072 9f3d c456 3f3d 52c4 ae3d
000000a0: 55a9 28be 4d49 10be 1979 8c3a 81b2 a6bd
000000b0: e3b2 aa3d f249 413e ee1a 1d3e 2f69 e9bd
000000c0: 0aa1 c9bc e228 f6bc d46c 6f3d f8ca e7bd
000000d0: ecb3 27bc c93e 0a3e cb24 d83d 7021 49be
000000e0: 14f9 a3bc 8c0a e73d d719 e1bd e180 9bbc
000000f0: 3e43 e0bc a34e 3e3b 5e9e 663b 1185 293e
00000100: 0de1 253d 91f0 c03d 7aa7 8bbd d2d3 b3bd
00000110: 274c dfbd de21 023e 6308 edbb bdd4 d5bd
00000120: 600c 3bbd 2de1 a43d ff89 b3bd eef5 603e
00000130: def9 0dbe deb9 26bc 8298 0b3e 1dde 68be
00000140: d261 01be 18d6 113e ff64 e33d 9ced 5bbd
00000150: 194e 3e3e 17a2 3bbd 04d7 edbd 3767 0f3d
00000160: fa0e d33c 7b45 82bd b646 d33c ebb6 a9bd
00000170: 2743 b8bc 410e 163e e80f 0739 84e5 5ebd
00000180: 58b7 c9bd cccc f5bd 6453 88bc b1e9 233d
00000190: a7bb 373e a42d 5fbe 45b1 663d 039c 16be
000001a0: 6658 e4bd 90d9 30bb 36f4 ed3d 395d 173e
000001b0: 1771 a6bc f752 b53c ebc5 66be 148f 503e
000001c0: aa16 633b 0a0e 0cbe 3915 65bd 840e 323e
000001d0: 3039 3b3e 959d e03d 04f3 213c 6039 61bd
000001e0: 33b6 80bd c9e2 3fbe 2fe0 113e 39fd c23c
000001f0: b525 d63c b567 90be c7e3 e83c e42b 17be
00000200: 358d 77bd bf12 b1bc 2352 063e 57a1 e7bd
00000210: 32f6 043e 4814 a13d 6137 73bc d1c9 88be
00000220: f6d3 efbb 7b16 db3d 80f1 603d 2034 513d
00000230: 2a34 b1bd b4de a4bd cb57 b9bb de5c e6bc
00000240: 9f1a 793e 47d4 5c3e 15df 71bd d9aa 363c
00000250: 162a a1bd d442 563e c1c7 c83d 9cf6 083d
00000260: 5ca5 66be 1861 60bd 91ef ce3c b7ca d2bd
00000270: f79c a4bc 6506 00bd cfbc 343e bfbf 72bd
00000280: 72f3 2fbd bfa4 9ebd a1b9 d83d 228a f83d
00000290: 6422 0abe dfe4 36be 5536 9bbd 0089 4bbd
000002a0: ff40 e93c 8e95 5cbc bcd1 933c 0cad 933d
000002b0: 4dba 9a3c c58e 263e eebf 14be c348 3d3e
000002c0: 5820 11bd 7348 92bd ebaa 5bbe 2322 2d3e
000002d0: 5365 0ebd d2f7 15be 43cc 2cbe e205 803e
000002e0: 7283 873d 988f da3d 7440 073d 1f44 23bb
000002f0: 9898 75be cfab bdbc d915 8fbd 0344 363e
00000300: be9d debd a8af c13e db96 523e 885a 623e
00000310: 3c69 7fbd 8812 8ebd dc79 af3d ff5c 0b3e
00000320: 66bf a23d e4c8 24bd 250b 47bc de0a fc3c
00000330: afc7 ed3d c0c7 13bd 179b 6cbd a38d 6bbe
00000340: df63 2cbe 893b e43d 2f9f dfbd 2151 8abd
00000350: bbeb 80bd 26e5 ed3c 63d5 3cbd ce79 12be
00000360: d068 4a3d cb1c 98be ca81 953d f526 b2bd
00000370: f9b8 3d3d 5dff 183d 84e1 9d3d 5dc9 cfbd
00000380: ab95 64be 2a5f a3bd b9c0 21bd 2d45 8cbd
00000390: 7a3d cd3d d38b 4b3d 4579 493e ba76 efbd
000003a0: 7eb3 06bd 1806 43be 8ad7 a83d 5fa2 253e
000003b0: 642f 63bd a635 9b3d ea41 303e 9672 bcbb
000003c0: 49b2 88bd 6312 f43d c38a bfbd 4b7d 3cb8
000003d0: e309 31be 701a 2dbd e405 98bc 7574 0c3d
000003e0: f4db 533e 699b 75bc fc91 f3bd a684 a33d
000003f0: 367b a8be 70fd 973e 95e6 7f3d d566 cdbd

model.2.conv_1.weight f4 [64, 64, 3, 3]
-0.07362443 0.0335244 -0.02073061 0.035010803 0.009160291 0.029659284 -0.019152218 -0.050184377
0.014099699 0.07357769 0.014311065 -0.05177995 -0.02710473 -0.0824686 -0.04875847 0.046172347
0.027535424 0.03196318 -0.07266758 -0.03505768 0.020344304 -0.012708333 -0.074969284 -0.06289866
-0.0030033395 0.016160393 0.0024680954 0.011974095 -0.028026102 0.07623421 -0.018046025 -0.026578536
-0.019162204 0.032023314 -0.0011861277 0.0063151843 -0.04891998 -0.016204707 0.0010906074 0.0125397695
0.007837342 -0.013065167 0.045502827 -0.07522258 -0.052933976 -0.06437143 0.033033006 -0.06243072
-0.025999403 0.06263074 -0.0516577 -0.002056459 -0.050116822 0.020804027 -0.019520583 -0.014132888
0.040007897 0.017281707 0.077949084 -0.03759775 -0.015629087 0.015564001 -0.031580005 -0.046405204
0.046934202 -0.060127333 -0.049059547 -0.037730064 -0.044310335 0.0065331445 -0.055288073 -0.011295302
-0.04087957 0.00077074056 -0.046203386 -0.013166497 0.0879027 -0.008417676 -0.1603017 -0.011409032
0.030965574 -0.10040151 0.010311779 0.0074719386 -0.04864578 0.07001906 -0.030744549 0.062650375
-0.068903506 0.015236966 -0.006155692 -0.059435673 -0.04946821 -0.028090194 -0.04340866 -0.01186178
-0.09793159 -0.09616605 -0.0051938356 6.2843865e-06 -0.016647331 0.010359066 -0.053661283 0.012637825
-0.03907599 0.06479313 -0.013949298 0.021867827 -0.020272821 -0.021958841 -0.041884948 0.050933685
-0.010679312 -0.07276725 0.048098624 -0.06800985 -0.018163903 -0.094816536 0.0032122468 0.037132997
0.0579019 -0.008116286 -0.022978058 -0.0066508893 -0.05410438 -0.04549965 -0.00058270793 -0.079981744
-0.027289834 0.00619099 0.0035371287 -0.015494098 0.071202464 0.033363294 0.011419397 0.024507971
-0.014028762 0.026080819 0.005156647 -0.043302555 0.023230737 0.057217967 0.016430542 -0.045908146
0.058165878 -0.05116618 -0.10058252 0.08387669 0.018514035 -0.037644472 -0.001501476 -0.062110305
-0.00999442 0.06520899 0.024383007 0.062856354 0.02330076 -0.013253947 0.0017240893 0.009856485
-0.0073821265 -0.064226896 -0.017809322 0.022884086 -0.012684975 0.032262314 -0.042188752 -0.029448476
-0.0053165597 0.057028014 0.002978047 -0.037002966 0.036404856 -0.013879993 0.028970102 0.027357792
-0.04625791 -0.050222494 -0.011392759 0.027098365 0.0250957 0.030549359 0.029129775 -0.036436148
0.013242406 0.050220992 0.012425708 -0.05456347 -0.035595037 0.039838348 -0.059340984 0.031542767
-0.0024399948 -0.05110741 0.015137624 -0.06059333 0.04464339 -0.02126341 0.10583766 0.03149414
-0.008606488 -0.008047607 -0.0019098984 0.01167881 0.003060098 0.01514743 -0.019034965 0.027905483
0.097441144 -0.074733794 0.016053839 -0.1190697 -0.0970545 -0.06616131 0.009959434 -0.06774746
0.074064784 0.023970602 -0.06407226 0.027443513 0.04369015 0.001377477 -0.045232996 0.0922475
-0.021085268 -0.03317341 -0.014160918 0.00017009347 -0.0052445848 -0.030522866 0.029363109 -0.016709933
-0.0055560283 -0.035962258 -0.056838844 -0.007834094 -0.0090076905 0.04023044 -0.032750063 -0.03376059
-0.031526193 -0.037611764 -0.1200683 0.021776889 -0.047219265 -0.05775174 -0.007153951 -0.077534266
-0.015260468 0.053176064 -0.1289527 0.0068850894 -0.011191053 -0.038276337 -0.029486684 0.045385394
00000000: 68c8 96bd e250 093d 3dd3 a9bc 7d67 0f3d
00000010: 0c15 163c 07f8 f23c 1de5 9cbc 228e 4dbd
00000020: 6d02 673c e6af 963d f578 6a3c 3617 54bd
00000030: bd0a debc 4ce5 a8bd f6b6 47bd 371f 3d3d
00000040: f891 e13c d3eb 023d bdd2 94bd a498 0fbd
00000050: 19a9 a63c 9d36 50bc 7f89 99bd 03d1 80bd
00000060: add3 44bb cd62 843c c5bf 213b ff2e 443c
00000070: ff96 e5bc ae20 9c3d 42d5 93bc 3bbb d9bc
00000080: 0efa 9cbc e12a 033d d777 9bba 9bef ce3b
00000090: 5160 48bd bcbf 84bc b6f2 8e3a 9b73 4d3c
000000a0: 3268 003c 480f 56bc 2c61 3a3d 4c0e 9abd
000000b0: 4cd1 58bd 2bd5 83bd 9e4d 073d 5bb7 7fbd
000000c0: b3fc d4bc 8c44 803d 0697 53bd a8c5 06bb
000000d0: 4c47 4dbd 356d aa3c a1e9 9fbc a18d 67bc
000000e0: 52df 233d 5e92 8d3c c5a3 9f3d 1900 1abd
000000f0: 9208 80bc 2700 7f3c 095a 01bd 6213 3ebd
00000100: 143e 403d 1448 76bd aaf2 48bd d78a 1abd
00000110: c17e 35bd fd13 d63b bf75 62bd ee0f 39bc
00000120: 5671 27bd 860b 4a3a c33f 3dbd 4bb8 57bc
00000130: 5506 b43d 4bea 09bc 2126 24be f3ec 3abc
00000140: 84ab fd3c 4f9f cdbd bcf2 283c 2ad7 f43b
00000150: cc40 47bd 2766 8f3d fedb fbbc d74e 803d
00000160: 481d 8dbd 78a4 793c b0b5 c9bb d272 73bd
00000170: 2e9f 4abd 681d e6bc 47cd 31bd e957 42bc
00000180: 5c90 c8bd b5f2 c4bd 0d31 aabb 78de d236
00000190: fc5f 88bc 12b9 293c efcb 5bbd e10e 4f3c
000001a0: 250e 20bd 43b2 843d 998b 64bc 2824 b33c
000001b0: 3013 a6bc 07e3 b3bc 8d8f 2bbd d79f 503d
000001c0: 48f8 2ebc ff06 95bd 1003 453d c048 8bbd
000001d0: 77cc 94bc 2c2f c2bd 8f84 523b c518 183d
000001e0: 8b2a 6d3d 2cfa 04bc 7b3c bcbc b4ef d9bb
000001f0: 8e9c 5dbd d75d 3abd dec0 18ba 78cd a3bd
00000200: ee8e dfbc cadd ca3b 2ccf 673b f5da 7dbc
00000210: 99d2 913d f3a7 083d 6c18 3b3c f1c4 c83c
00000220: e4d8 65bc 71a7 d53c 17f9 a83b 055e 31bd
00000230: 634e be3c 635d 6a3d 5899 863c 2e0a 3cbd
00000240: 583f 6e3d a193 51bd 35fe cdbd 8bc7 ab3d
00000250: bfaa 973c 1731 1abd 2dcd c4ba 6067 7ebd
00000260: a3bf 23bc 4a8c 853d dfbe c73c d5ba 803d
00000270: 3ce1 be3c 1527 59bc d6fa e13a 187d 213c
00000280: c4e5 f1bb 6489 83bd dbe4 91bc 6877 bb3c
00000290: a4d4 4fbc 7d25 043d 1dce 2cbd ee3d f1bc
000002a0: 8936 aebb 3596 693d 562b 433b 6c90 17bd
000002b0: 421d 153d e968 63bc b552 ed3c 731d e03c
000002c0: ef78 3dbd 1ab6 4dbd b2a8 3abc 64fd dd3c
000002d0: 7f95 cd3c a642 fa3c 91a1 ee3c 123e 15bd
000002e0: adf6 583c 87b4 4d3d 3295 4b3c f27d 5fbd
000002f0: 1acc 11bd 892d 233d 880f 73bd fd32 013d
00000300: 52e8 1fbb 0156 51bd cc03 783c b630 78bd
00000310: fddb 363d 9a30 aebc 6ac1 d83d 0000 013d
00000320: 3a02 0dbc 1cda 03bc 8e55 faba 7b58 3f3c
00000330: ed8b 483b ed2c 783c 37ef 9bbc 0a9a e43c
00000340: 398f c73d 080e 99bd 5783 833c d1da f3bd
00000350: 82c4 c6bd 957f 87bd e52c 233c 2ebf 8abd
00000360: 47af 973d ff5d c43c 5138 83bd 38d1 e03c
00000370: 71f4 323d 758c b43a 3c46 39bd 42ec bc3d
00000380: 03bb acbc d7e0 07bd 3203 68bc 1e5b 3239
00000390: c4da abbb 170b fabc e78a f03c 45e3 88bc
000003a0: 580f b6bb 294d 13bd d9cf 68bd 925a 00bc
000003b0: fe94 13bc adc8 243d ee24 06bd 8b48 0abd
000003c0: 9c21 01bd cb0e 1abd 5ee6 f5bd 7265 b23c
000003d0: fd68 41bd 178d 6cbd b16b eabb 49ca 9ebd
000003e0: 0b07 7abc 25cf 593d 2d0c 04be 519c e13b
000003f0: ae5a 37bc a6c7 1cbd 0f8e f1bc 09e6 393d

model.2.conv_2.weight f4 [64, 64, 3, 3]
0.030478284 0.020029137 0.018376123 0.09764902 -0.07309359 0.0046329456 -0.07744133 -0.021975348
-0.083316684 -0.065530926 -0.012612775 -0.01944765 -0.012139885 -0.001318815 -0.03419065 0.0049012783
0.0010145735 -0.08168954 0.0043323054 -0.07823958 -0.045522965 -0.022579726 -0.056532495 -0.03157078
-0.06586828 -0.05850878 -0.032694694 0.024818566 -0.04152451 -0.0031342062 0.053890664 -0.0313694
0.00736962 0.029688882 -0.06964134 0.045762554 0.053216293 -0.067930326 -0.054804325 -0.037302565
-0.032207754 -0.024259923 0.05846819 0.034241688 0.02618118 0.041232854 -0.09113572 0.017353984
-0.0074688857 0.07374912 0.07943385 -0.052316047 0.000608312 0.026916957 0.007841505 0.021974286
0.028624346 0.061712924 -0.05394587 -0.021909215 -0.07667919 -0.01339204 0.03220254 -0.033734243
-0.052451946 -0.064872935 -0.020830074 -0.004044858 -0.03215119 -0.033131395 0.018780231 -0.055068348
-0.014417045 -0.007913331 0.053227335 0.017261917 -0.011126263 0.0087861335 0.019723522 -0.019431174
0.010231047 0.063842885 0.084512316 -0.012470975 -0.004515053 0.0003973701 0.07092275 0.025057036
-0.018954229 0.008646182 -0.075234585 -0.04944199 -0.029591495 -0.084946305 -0.0134963775 -0.03857915
-0.028545694 -0.00044516457 -0.097179145 -0.031918533 0.01921717 0.026467811 0.047700904 0.0037866023
0.014662037 -0.029415349 -0.035694577 0.0059788316 0.0065493276 0.0752416 -0.0075736213 -0.056019597
0.044714235 -0.019763745 -0.038541496 -0.013670525 0.02833216 -0.060395505 0.026563382 -0.0064958697
-0.03133009 -0.010399951 -0.08585324 0.03132721 0.062910564 -0.03244419 -0.037083577 -0.0009998624
0.0015795637 -0.06265233 -0.04046619 0.055774763 -0.009434179 -0.094849184 0.00047505205 -0.019770348
0.018423652 -0.019582158 -0.0118178185 0.03910819 0.030278714 -0.0010606701 -0.020762054 0.04676787
-0.03521851 0.018646114 0.020006238 0.010463928 0.037333876 0.025878586 0.018976009 0.04730196
-0.012169109 0.039227273 0.015541848 0.038164493 0.009791795 0.012765728 -0.045388494 -0.068138115
-0.0057045165 -0.021302098 0.02914696 0.043064754 0.026010321 0.039481565 0.00036887077 0.02200491
0.02684866 -0.046160176 0.057256367 0.02229307 0.040962975 -0.022290748 -0.059542518 0.024150416
0.040005438 0.0586224 -0.06321843 0.022323653 -0.0045791147 0.029285913 0.049467888 -0.021634288
-0.019337675 0.03148034 -0.05940537 0.028523618 -0.018429272 0.042947736 0.00466203 0.040152896
0.06926988 0.003799724 0.016996711 -0.0044056913 -0.0049749664 0.09230273 -0.028958242 0.011940007
0.018304788 -0.049607772 0.045863267 0.034724712 -0.039609652 -0.0024759464 -0.062094267 0.014619193
-0.05611929 -0.029080527 0.050766025 0.05798422 0.027274672 0.057930272 0.0023557504 0.03344798
0.02710567 -0.08833515 -0.010074828 0.0006650306 0.01712085 0.038130455 -0.003423363 -0.017450526
-0.067322 0.043620404 0.0046748603 -0.011306092 0.13855842 0.015581355 0.024550438 0.0144925
0.066604376 -0.09085015 -0.04205157 -0.03689512 0.0021990212 -0.00459523 0.022752421 0.0025384126
0.00026520054 0.03268592 0.028331315 0.05412085 0.058770683 0.059729908 -0.00929246 -0.04843222
-0.10307755 0.00087514275 -0.058389626 -0.013927142 0.011230994 0.025628893 -0.050541867 -0.0062978105
00000000: 98ad f93c 2514 a43c 8689 963c 36fc c73d
00000010: 18b2 95bd f7cf 973b 8f99 9ebd a505 b4bc
00000020: f0a1 aabd 1435 86bd d0a5 4ebc ae50 9fbc
00000030: 5ee6 46bc 17dc acba 7f0b 0cbd e79a a03b
00000040: 70fb 843a d84c a7bd 03f6 8d3b 133c a0bd
00000050: 4a76 3abd 1ef9 b8bc 9e8e 67bd 5d50 01bd
00000060: f3e5 86bd e7a6 6fbd dfea 05bd 4e50 cb3c
00000070: 9b15 2abd 4167 4dbb 75bc 5c3d 337d 00bd
00000080: da7c f13b 1936 f33c 1ea0 8ebd 8471 3b3d
00000090: 54f9 593d 0e1f 8bbd 807a 60bd 93ca 18bd
000000a0: 47ec 03bd bfbc c6bc 577c 6f3d 0341 0c3d
000000b0: ea79 d63c c8e3 283d 5da5 babd f129 8e3c
000000c0: 8ebd f4bb c709 973d 37ae a23d 5a49 56bd
000000d0: 2177 1f3a f380 dc3c a879 003c 6b03 b43c
000000e0: 9b7d ea3c b1c6 7c3d 58f6 5cbd f47a b3bc
000000f0: fb09 9dbd 496a 5bbc d0e6 033d eb2c 0abd
00000100: dad7 56bd 1adc 84bd d5a3 aabc ba8a 84bb
00000110: f7b0 03bd c9b4 07bd 00d9 993c 598f 61bd
00000120: 7835 6cbc eaa6 01bc e804 5a3d dd68 8d3c
00000130: ee4a 36bc b7f3 0f3c 3993 a13c 202e 9fbc
00000140: 1fa0 273c 0fc0 823d cb14 ad3d 0f53 4cbc
00000150: 02f3 93bb 1d56 d039 f23f 913d 6a44 cd3c
00000160: e645 9bbc b7a8 0d3c 9714 9abd af83 4abd
00000170: dd69 f2bc 54f8 adbd e91f 5dbc 2c05 1ebd
00000180: a9d8 e9bc fa64 e9b9 dc05 c7bd 02bd 02bd
00000190: 546d 9d3c 06d3 d83c 0662 433d a528 783b
000001a0: 0a39 703c 75f8 f0bc 7a34 12bd 13ea c33b
000001b0: be9b d63b 4518 9a3d 242c f8bb ce74 65bd
000001c0: 4626 373d 94e7 a1bc b0dd 1dbd 56fa 5fbc
000001d0: d918 e83c 4761 77bd 739b d93c 4edb d4bb
000001e0: fb53 00bd 8e64 2abc d3d3 afbd f650 003d
000001f0: 41d7 803d 33e4 04bd f3e4 17bd d10d 83ba
00000200: 5d09 cf3a dd4f 80bd e0bf 25bd 1474 643d
00000210: d191 1abc 4a40 c2bd 6810 f939 6df5 a1bc
00000220: 33ed 963c c36a a0bc 869f 41bc e92f 203d
00000230: 110b f83c 2f06 8bba 2f15 aabc ab8f 3f3d
00000240: 4941 10bd bcbf 983c 1fe4 a33c e570 2b3c
00000250: 68eb 183d 54ff d33c 9373 9b3c b3bf 413d
00000260: f160 47bc c7ac 203d 3ca3 7e3c 5f52 1c3d
00000270: c46d 203c 5827 513c 49e9 39bd ff8b 8bbd
00000280: f4ec babb bd81 aebc 9bc5 ee3c ab64 303d
00000290: 9913 d53c 6cb7 213d ff64 c139 a443 b43c
000002a0: b9f1 db3c 7412 3dbd a785 6a3d f59f b63c
000002b0: cbc8 273d 169b b6bc dbe2 73bd 18d7 c53c
000002c0: bedc 233d 0b1e 703d aa78 81bd 18e0 b63c
000002d0: 660c 96bb 03e9 ef3c d79e 4a3d 643a b1bc
000002e0: 0b6a 9ebc 87f1 003d 0c53 73bd 5daa e93c
000002f0: fcf8 96bc f7e9 2f3d f1c3 983b 5d77 243d
00000300: 5edd 8d3d ca04 793b b03c 8b3c 9e5d 90bb
00000310: 0b05 a3bb 3709 bd3d d639 edbc 05a0 433c
00000320: ecf3 953c 8531 4bbd 1fdb 3b3d 803b 0e3d
00000330: bb3d 22bd 7d43 22bb 8f56 7ebd 5785 6f3c
00000340: 57dd 65bd 493a eebc 09f0 4f3d dd80 6d3d
00000350: 226f df3c 4b48 6d3d ef62 1a3b c000 093d
00000360: b60c de3c 0fe9 b4bd e410 25bc 7355 2e3a
00000370: 0641 8c3c ae2e 1c3d 805a 60bb 68f4 8ebc
00000380: 1ee0 89bd 4fab 323d 922f 993b 303d 39bc
00000390: 42e2 0d3e f148 7f3c 001e c93c f371 6d3c
000003a0: e067 883d a50f babd 443e 2cbd 561f 17bd
000003b0: 741d 103b 9593 96bb 4963 ba3c 7f5b 263b
000003c0: 9d0a 8b39 ace1 053d 1317 e83c d3ad 5d3d
000003d0: 87b9 703d 59a7 743d 673f 18bc dd60 46bd
000003e0: 531a d3bd d669 653a f629 6fbd ab2e 64bc
000003f0: 3402 383c aff3 d13c fd04 4fbd dd5d cebb

model.3.conv_1.weight f4 [64, 64, 3, 3]
-0.030456102 -0.004730232 0.031345956 0.029508675 0.049193732 0.019478742 0.05308747 -0.032592952
0.028324261 0.0472853 0.0011791356 -0.06698329 0.05314394 0.033104178 0.013778895 -0.07896927
0.012545142 -0.059517756 0.024424035 0.028903434 0.048952002 0.015133429 0.052581195 0.019873323
0.03811011 -0.037367877 0.018657984 -0.055563446 0.033173822 -0.0916398 0.012818377 -0.018240487
0.020209435 0.057943206 0.07069316 0.04391851 -0.037534207 0.03149963 0.01997298 0.02668781
0.06432132 0.0039805737 0.018119289 -0.019314574 -0.019952774 0.048173487 -0.023422914 0.01523888
0.1293129 -0.027560068 -0.012683201 -0.039351158 0.05518914 0.0034013344 0.05730842 0.022001993
0.031024361 -0.051267404 0.05320513 -0.06583133 -0.070409685 0.060669173 0.05014808 0.05041407
-0.0067808125 0.03095037 0.029627861 -0.030981949 -0.056866553 0.08002365 -0.030527333 0.048239853
-0.035902586 -0.02955346 0.020590277 0.03629188 -0.025212308 -0.025406227 0.025446778 0.009462136
-0.011141961 -0.0006432761 -0.0021186473 0.02723888 -0.017745726 0.023129525 0.038685087 0.08831545
0.019190572 0.030640649 0.031297352 -0.020935766 -0.03534734 0.03988536 -0.014907566 0.02073532
-0.013263815 0.03297164 -0.0853322 0.02213619 -0.011667981 -0.0030551823 -0.060016066 0.018822147
-0.06339113 -0.025716424 -0.1329909 0.0863249 -0.043279953 0.05867719 -0.030156907 -0.054430414
0.020198112 -0.060259808 0.004641758 -0.029770011 -0.027489746 0.06485337 -0.050536003 -0.0044169542
-0.032902688 -0.018067269 -0.0333547 -0.049962692 0.013171009 0.011734395 0.0170323 0.017392108
-0.03884418 0.09733543 0.020126095 0.033309452 0.019708898 -0.015477909 0.0044224462 -0.05358417
-0.025056219 -0.029204732 0.043386642 0.058147673 -0.05675373 0.015854875 -0.05842651 0.0316207
0.07137371 0.03232115 0.037411146 -0.009427784 -0.06696331 -0.088649616 0.06454173 -0.021480493
0.005490094 -0.040153537 0.0657458 -0.028160557 -0.06988282 0.0057009296 -0.00494738 0.0097830985
-0.059936065 -0.00460855 0.04205737 0.0029297252 -0.017325731 0.07078925 0.012379633 -0.057068318
0.0013395932 0.0087367045 0.018931324 -0.03716905 0.025834255 0.03598032 -0.016476968 -0.015303215
-0.04940562 0.023607044 0.06036341 -0.045959756 0.007873005 0.0051486315 0.065939024 -0.064147666
-0.05837065 0.018843811 -0.032943487 0.018100798 0.061431535 -0.03234532 -0.033760365 -0.008566216
-0.074346766 0.006559479 -0.058540445 -0.080576554 -0.052396666 0.027147297 -0.008574673 -0.0049190316
0.008083191 0.0682773 -0.015776578 -0.057883397 0.034456532 -0.013483984 -0.011499651 0.038557746
-0.05712005 -0.010609406 -0.05187037 0.014512153 -0.044915326 -0.057678867 -0.012403129 -0.010280587
-0.018346967 -0.08821519 0.011839546 0.008489145 -0.017292978 0.02811394 0.012273884 -0.017333934
0.014508877 -0.011572359 -0.009335065 -0.042602934 -0.055445157 0.03655608 0.062390275 0.0078015374
-0.033958357 -0.015347185 0.048024725 0.019662786 -0.041351717 0.013646349 -0.034479517 -0.0057468787
0.041153282 0.0434974 -0.017456055 0.015699007 -0.0120789595 -0.017662672 -0.10079791 -0.092043035
0.066484384 0.13808717 -0.09062168 0.015585325 0.029530277 0.09218446 -0.03335773 0.025994696
00000000: 137f f9bc 1000 9bbb 9e64 003d 2dbc f13c
00000010: 5e7f 493d e291 9f3c 3f72 593d 3080 05bd
00000020: 4808 e83c 3bae 413d 3a8d 9a3a 892e 89bd
00000030: 76ad 593d 3f98 073d e0c0 613c a4ba a1bd
00000040: 248a 4d3c e4c8 73bd ea14 c83c e5c6 ec3c
00000050: e581 483d 34f2 773c 615f 573d 61cd a23c
00000060: 5919 1c3d 0f0f 19bd a1d8 983c 7f96 63bd
00000070: 46e1 073d a6ad bbbd 2c04 523c 136d 95bc
00000080: 428e a53c db55 6d3d 93c7 903d e5e3 333d
00000090: 78bd 19bd c205 013d 609e a33c 65a0 da3c
000000a0: e5ba 833d 796f 823b e76e 943c 9939 9ebc
000000b0: 0074 a3bc 9051 453d 69e1 bfbc 7fac 793c
000000c0: 9a6a 043e a7c5 e1bc 33cd 4fbc ae2e 21bd
000000d0: 020e 623d ece8 5e3b 3cbc 6a3d 863d b43c
000000e0: cd26 fe3c c5fd 51bd 9fed 593d 94d2 86bd
000000f0: f432 90bd 3d80 783d 1368 4d3d fc7e 4e3d
00000100: 9431 debb a18b fd3c 21b6 f23c dbcd fdbc
00000110: e7ec 68bd 70e3 a33d 7514 fabc 2797 453d
00000120: 970e 13bd 191a f2bc f1ac a83c cba6 143d
00000130: 0b8a cebc b820 d0bc c375 d03c 1307 1b3c
00000140: c68c 36bc 87a1 28ba 01d9 0abb 1224 df3c
00000150: 7c5f 91bc 217a bd3c 4174 1e3d bbde b43d
00000160: 8c35 9d3c 1902 fb3c a731 003d 7c81 abbc
00000170: 5fc8 10bd d55e 233d dd3e 74bc 1edd a93c
00000180: 7950 59bc 450d 073d a6c2 aebd f556 b53c
00000190: 0f2b 3fbc 7439 48bb 68d3 75bd e730 9a3c
000001a0: 35d3 81bd 40ab d2bc c42e 08be 1ccb b03d
000001b0: 5246 31bd 7e57 703d 9e0b f7bc 6df2 5ebd
000001c0: 8376 a53c fdd2 76bd e319 983b 3de0 f3bc
000001d0: 2d32 e1bc d8d1 843d d7fe 4ebd 19bc 90bb
000001e0: f8c4 06bd cf01 94bc f09e 08bd aea5 4cbd
000001f0: 37cb 573c 9f41 403c 5287 8b3c e579 8e3c
00000200: 131b 1fbd cc57 c73d 7bdf a43c 7e6f 083d
00000210: 8e74 a13c 0e97 7dbc 2bea 903b 137b 5bbd
00000220: b342 cdbc c33e efbc 31b6 313d 412c 6e3d
00000230: 9976 68bd 15e2 813c a350 6fbd b584 013d
00000240: 612c 923d 2f63 043d 6e3c 193d fe76 1abc
00000250: 0f24 89bd ee8d b5bd 742e 843d dcf7 afbc
00000260: 3fe6 b33b 0978 24bd bca5 863d f8b0 e6bc
00000270: b91e 8fbd ddce ba3b a21d a2bb 4a49 203c
00000280: 857f 75bd 5203 97bb 5944 2c3d a200 403b
00000290: b1ee 8dbc f4f9 903d f2d3 4a3c 78c0 69bd
000002a0: 4a95 af3a 6524 0f3c dd15 9b3c 933e 18bd
000002b0: 5ca2 d33c 1a60 133d b5fa 86bc 56ba 7abc
000002c0: 8c5d 4abd 8f63 c13c 9f3f 773d 4c40 3cbd
000002d0: c7fd 003c dab5 a83b 0a0b 873d da5f 83bd
000002e0: 1016 6fbd 565e 9a3c c0ef 06bd 2048 943c
000002f0: a29f 7b3d 877c 04bd 4f48 0abd 5059 0cbc
00000300: 1e43 98bd e6f0 d63b 1bc8 6fbd 5205 a5bd
00000310: e39d 56bd 0264 de3c c97c 0cbc d42f a1bb
00000320: 5c6f 043c f8d4 8b3d e23d 81bc 2417 6dbd
00000330: 4b22 0d3d eeeb 5cbc 0869 3cbc baee 1d3d
00000340: b7f6 69bd 13d3 2dbc 0676 54bd 62c4 6d3c
00000350: 22f9 37bd ad40 6cbd 7e36 4bbc e86f 28bc
00000360: 614c 96bc 2aaa b4bd a8fa 413c 0e16 0b3c
00000370: 01aa 8dbc 354f e63c 6718 493c e5ff 8dbc
00000380: a4b6 6d3c fe99 3dbc 1af2 18bc 6a80 2ebd
00000390: 761a 63bd d4bb 153d f28c 7f3d 0aa4 ff3b
000003a0: eb17 0bbd c272 7bbc 93b5 443d da13 a13c
000003b0: 6b60 29bd f094 5f3c 653a 0dbd 5050 bcbb
000003c0: 5890 283d 542a 323d 0000 8fbc 349b 803c
000003d0: d4e6 45bc 4fb1 90bc 226f cebd 0f81 bcbd
000003e0: f728 883d b966 0d3e dc97 b9bd 9759 7f3c
000003f0: 7be9 f13c 35cb bc3d 1da2 08bd d4f2 d43c

model.3.conv_2.weight f4 [64, 64, 3, 3]
-0.009868345 0.012637182 -0.04880529 -0.023167035 -0.04220763 -0.029856805 0.05270917 -0.0057258927
-0.051560037 -0.0044176485 -0.05287732 -0.03370243 -0.021680001 -0.030108932 -0.005953607 0.020668045
-0.009118633 0.020608759 -0.0051804944 -0.06833018 0.007582986 -0.0016327167 0.009668319 -0.0038778791
3.0806987e-05 -0.05033427 0.022325901 -0.05106936 0.036498055 0.014044242 -0.025689688 0.058698785
-0.00855049 -0.037442055 -0.046786945 -0.039387655 -0.0064085964 -0.013093118 0.022927055 -0.046318166
0.008611218 -0.023473911 0.0076922392 0.057076264 0.024585705 0.03203144 0.10510384 -0.021854956
0.009927444 -0.025456667 -0.07304438 -0.0022870335 -0.028192619 0.038532574 0.058583304 -0.007308531
0.014408488 0.042544447 -0.012199803 -0.004736188 0.0322659 -0.0019064375 -0.047068175 -0.025289651
-0.07081222 -0.07392638 -0.058610138 0.035770893 0.008337452 -0.0106474785 0.0155462045 -0.05680901
0.07930292 0.06231566 -0.07279913 0.050275825 0.04798768 0.020645242 0.021811547 -0.08889716
-0.024058757 0.04515735 -0.045136783 0.053523976 0.0548894 0.10079227 -0.017053246 0.09040186
0.0543444 -0.03319907 0.03527358 0.014987419 0.047450908 -0.0019641754 0.0012066741 -0.046447106
-0.028406534 0.047196694 0.031481646 -0.01640013 -0.0052522104 -0.035033394 0.026591856 0.07142429
0.08829882 0.047602773 -0.06983986 -0.08367988 0.033067767 0.1461472 0.0390916 0.07444585
-0.019318087 0.03270917 -0.03887458 -0.099987805 -0.06734938 -0.02727432 0.033916842 -0.006165591
-0.0022191945 -0.032626275 0.08658723 -0.056909204 -0.012223169 -0.020831158 0.048674908 -0.067818195
-0.060492627 0.09234023 0.068607226 -0.013879844 -0.0016843857 0.04597528 -0.030643623 0.0015558673
0.055778544 0.07912334 0.058989152 -0.008682658 0.038330834 0.09026567 0.019599693 -0.01922712
-0.002016125 0.0066807177 0.025512245 -0.03517026 -0.035957042 0.04332061 -0.038047988 -0.051995143
-0.029335579 -0.038864836 -0.08444139 -0.021667955 -0.0038825457 0.04580846 0.098705 0.073714994
-0.017323742 -0.057701297 -0.09207104 -0.011671745 -0.0475507 -0.0768649 0.03257291 -0.0041110357
-0.012818114 -0.0061257184 -0.053013332 0.06092651 0.029321682 0.0074869506 -0.0010647018 0.007880446
0.015835522 0.034584112 -0.062992744 0.051310234 0.017442383 0.008439808 -0.04743773 -0.011177513
0.013503091 -0.03035358 0.019667985 -0.003202423 0.0038032813 0.01057541 -0.009941457 -0.028489493
0.012940058 -0.031188194 -0.02074345 0.003078361 0.044055924 0.056391396 0.052729353 0.041432627
-0.02872754 0.07035228 -0.03646012 0.04475991 -0.019105554 0.0078130625 0.0057678446 -0.004790423
0.024847552 -0.07152609 0.04422254 -0.013688989 0.08488786 0.04783624 -0.0031086663 0.061907932
-0.02584495 -0.022340273 0.02266937 -0.0032399578 0.008189204 0.022218741 -0.02369784 0.054166995
-0.04037948 0.0044882135 -0.03782767 -0.001194843 -0.044987857 -0.039716396 -0.04603712 -0.06420114
0.006643953 -0.07472925 -0.06159585 0.060146723 0.03752297 -0.030644452 0.0029710056 -0.024014287
-0.018471763 0.030822558 -0.0141269425 -0.004861148 0.002881783 -0.05655268 0.059586305 0.07387539
0.004265958 0.03815435 -0.00688748 0.02706767 -0.026827903 0.0017240432 -0.019860322 0.027030347
00000000: d7ae 21bc 2f0c 4f3c 0ee8 47bd cbc8 bdbc
00000010: e8e1 2cbd 4296 f4bc 92e5 573d 45a0 bbbb
00000020: 9e30 53bd ecc1 90bb e495 58bd 8f0b 0abd
00000030: 429a b1bc 02a7 f6bc 7a16 c3bb 0850 a93c
00000040: 5266 15bc b3d3 a83c 23c1 a9bb b2f0 8bbd
00000050: b27a f83b e200 d6ba de67 1e3c 0424 7ebb
00000060: c036 0138 4f2b 4ebd cfe4 b63c 1b2e 51bd
00000070: fc7e 153d d219 663c 2e73 d2bc 236e 703d
00000080: 5b17 0cbc d75c 19bd aba3 3fbd f354 21bd
00000090: 34ff d1bb 8484 56bc 85d1 bb3c 1eb8 3dbd
000000a0: 1116 0d3c 5c4c c0bc 2e0f fc3b cdc8 693d
000000b0: f667 c93c 6633 033d af40 d73d 2a09 b3bc
000000c0: b8a6 223c 808a d0bc 4b98 95bd 0ee2 15bb
000000d0: 35f4 e6bc 55d4 1d3d 0cf5 6f3d 677c efbb
000000e0: 9411 6c3c 1643 2e3d afe1 47bc 0632 9bbb
000000f0: 4029 043d 6de1 f9ba 8fca 40bd 3e2c cfbc
00000100: ff05 91bd b766 97bd 2f11 70bd 8084 123d
00000110: cf99 083c c372 2ebc 82b5 7e3c 91b0 68bd
00000120: 9269 a23d b53e 7f3d b617 95bd 06ee 4d3d
00000130: bb8e 443d 3620 a93c 21ae b23c b70f b6bd
00000140: df16 c5bc eaf6 383d 59e1 38bd f53b 5b3d
00000150: b5d3 603d 2d6c ce3d 40b3 8bbc 9c24 b93d
00000160: 3c98 5e3d bffb 07bd 087b 103d cb8d 753c
00000170: e25b 423d 65b9 00bb 4429 9e3a 523f 3ebd
00000180: d2b4 e8bc 5251 413d e6f2 003d 9159 86bc
00000190: bc1a acbb 2d7f 0fbd 2ad7 d93c e646 923d
000001a0: 03d6 b43d 20fb 423d 3308 8fbd 5b60 abbd
000001b0: 1172 073d 9da7 153e 831e 203d 1177 983d
000001c0: f740 9ebc 0dfa 053d f43a 1fbd 68c6 ccbd
000001d0: 79ee 89bd 656e dfbc 63ec 0a3d ba08 cabb
000001e0: e86f 11bb 21a3 05bd a554 b13d a019 69bd
000001f0: b043 48bc 1ba6 aabc 575f 473d 44e4 8abd
00000200: 1ec7 77bd e01c bd3d f281 8c3d 4968 63bc
00000210: 9bc6 dcba 9350 3c3d 5608 fbbc 3eee cb3a
00000220: 0b78 643d 6b0b a23d 9c9e 713d b541 0ebc
00000230: cb00 1d3d 35dd b83d 898f a03c 3182 9dbc
00000240: f720 04bb ece9 da3b 0eff d03c b10e 10bd
00000250: b147 13bd f470 313d 35d8 1bbd dcf8 54bd
00000260: 2b51 f0bc bc30 1fbd 9cef acbd ff80 b1bc
00000270: 4f72 7ebb a7a1 3b3d d925 ca3d e3f7 963d
00000280: 85ea 8dbc 3258 6cbd be8f bcbd d93a 3fbc
00000290: 86c4 42bd 586b 9dbd 2c6b 053d deb5 86bb
000002a0: 1103 52bc 40ba c8bb 8224 59bd 138e 793d
000002b0: 0634 f03c 1855 f53b 778d 8bba fc1c 013c
000002c0: 7fb9 813c 12a8 0d3d 5702 81bd ae2a 523d
000002d0: 54e3 8e3c 1f47 0a3c 114e 42bd e321 37bc
000002e0: 123c 5d3c 12a8 f8bc c11e a13c bedf 51bb
000002f0: 7940 793b 7c44 2d3c 7ee1 22bc cc62 e9bc
00000300: 8902 543c 627e ffbc 2bee a9bc 54be 493b
00000310: fc73 343d aafa 663d bcfa 573d 42b5 293d
00000320: 0556 ebbc db14 903d 3557 15bd 2b56 373d
00000330: 4083 9cbc 5c02 003c 3000 bd3b fbf8 9cbb
00000340: 188d cb3c 457c 92bd b222 353d c847 60bc
00000350: b0d9 ad3d efef 433d c4ba 4bbb 2c93 7d3d
00000360: cab8 d3bc f302 b7bc 1db5 b93c 7955 54bb
00000370: 032c 063c 1404 b63c f921 c2bc 36de 5d3d
00000380: f464 25bd dd11 933b 30f1 1abd 479c 9cba
00000390: 3045 38bd a9ad 22bd 6b91 3cbd e37b 83bd
000003a0: 84b5 d93b a60b 99bd ee4b 7cbd 695c 763d
000003b0: b0b1 193d 130a fbbc 34b5 423b 9cb9 c4bc
000003c0: 1852 97bc 977f fc3c b174 67bc 444a 9fbb
000003d0: 4cdc 3c3b c8a3 67bd c510 743d fb4b 973d
000003e0: 73c9 8b3b bc47 1c3d 5fb0 e1bb 05bd dd3c
000003f0: 31c6 dbbc 4af9 e13a 1db2 a2bc bf6e dd3c

model.4.conv_1.weight f4 [64, 64, 3, 3]
-0.009597555 0.00486493 0.018055886 0.039376292 0.0819673 -0.058679752 -0.015001844 -0.016648298
-0.069301486 -0.040814597 0.10310564 0.037285052 -0.039499104 -0.0743032 -0.054918434 0.004515433
0.016474232 -0.017989501 -0.11347276 0.023515033 -0.031518716 0.028211078 0.0075899553 0.026891707
0.07240054 0.07756837 0.0024971336 -0.019852292 0.025825532 -0.066134796 -0.03954286 0.01482773
0.016480569 0.0131682465 -0.028628454 -0.049166948 -0.033915333 -0.05213452 -0.054970413 -0.0043498576
-0.033349216 0.038579963 -0.0005845554 -0.026238479 -0.023911132 0.0064946283 0.03228932 0.025501266
-0.0960146 0.046229806 0.07177902 0.04673511 0.00013528415 -0.026286092 -0.029242646 -0.08738392
0.11061876 0.027620053 -0.085732915 -0.002986462 -0.028127955 0.007401241 -0.058471296 -0.043153733
-0.08330504 -0.028372137 -0.014956825 -0.018097593 0.0018676857 -0.004802257 -0.08306483 0.0049887286
0.05652442 0.017675485 -0.004379162 0.044256195 -0.0315375 -0.025844472 0.04148313 0.0035276387
0.11380318 -0.010059791 0.02972609 0.004548157 -0.02132704 0.05329644 0.056988496 0.038103
0.0028795062 0.010402161 0.005033746 -0.031683434 0.014468956 0.007861447 0.012771881 0.00082835375
-0.016842948 -0.0030730998 -0.042701595 0.035483036 0.054972995 -0.017791029 0.035227574 -0.008287566
0.024753502 -0.033050008 0.015507165 -0.033064898 -0.060226534 -0.0069167158 -0.0646469 -0.08639407
0.0013005384 0.03982624 -0.022018252 0.028690059 -0.000317107 -0.010306236 -1.1048089e-05 -0.012386464
0.01574994 0.037362784 0.0066367085 -0.03300152 -0.098729506 0.06859663 -0.056319945 0.054035664
0.016521335 0.0016030233 -0.034336288 0.0051159845 0.025433961 -0.028756717 0.017990526 -0.05333628
-0.082017384 0.023530254 -0.014277926 0.03897209 -0.057635203 -0.03883393 0.06382104 -0.072590895
0.033488464 -0.06672995 0.036231257 -0.06608695 0.0060425224 -0.0072549563 -0.0029803785 -0.006673102
0.03993737 0.0022326186 -0.04897061 -0.04581123 0.017460229 -0.035931632 0.035506923 0.030679366
-0.09636523 0.0322565 -0.038909413 0.051203076 -0.020125793 -0.060067393 -0.06025384 0.016681409
0.0050976067 -0.028144795 -0.018486645 -0.031780586 0.01621303 0.050783943 -0.105935544 -0.071799144
0.04185236 -0.08924391 -0.050531168 0.045325045 -0.00727144 0.03223871 -0.037029006 0.043725394
-0.050348785 -0.044107378 0.015268686 -0.020501189 0.032646444 0.05312072 0.06451241 0.021013359
0.026712053 -0.10189265 -0.023320584 0.046436366 0.036882296 -0.045299 -0.016909204 -0.032362293
-0.044273466 0.0145035405 0.0081419805 0.014380493 -0.09474382 0.023967423 -0.010216982 -0.054988004
-0.010170751 0.0150795 -0.063417524 -0.004773271 -0.04830719 0.0075317896 0.005020762 -0.076597326
-0.007195367 -0.10256591 0.011686934 0.0020921386 0.0256451 -0.033626344 0.010930095 0.027491018
-0.032817416 0.018635817 0.009305349 -0.050392557 0.011705678 0.028095687 -0.11596433 0.027442832
0.005703068 -0.08738074 -0.032736048 0.069026485 -0.11170619 0.021900216 -0.044559523 -0.02484712
0.016297236 -0.047032196 0.00661527 0.010349904 -0.034005657 -0.038650885 0.031346206 -0.07059283
0.001223543 -0.006356948 0.06680097 -0.032044068 0.0065431916 -0.035265498 0.009623686 -0.0005441333
00000000: 103f 1dbc fe69 9f3b f0e9 933c 0949 213d
00000010: 79de a73d 2e5a 70bd 4bca 75bc 0362 88bc
00000020: f0ed 8dbd 352d 27bd 0d29 d33d 36b8 183d
00000030: d0c9 21bd 472c 98bd 27f2 60bd 33f6 933b
00000040: f8f4 863c b85e 93bc 6864 e8bd 99a2 c03c
00000050: c519 01bd eb1a e73c 29b5 f83b ff4b dc3c
00000060: bc46 943d 2adc 9e3d f3a6 233b 46a1 a2bc
00000070: 1190 d33c ae71 87bd b2f7 21bd 02f0 723c
00000080: 4202 873c a1bf 573c 3886 eabc 4863 49bd
00000090: ceea 0abd 028b 55bd a828 61bd 4089 8ebb
000000a0: 3099 08bd 0606 1e3d d93c 19ba 14f2 d6bc
000000b0: 47e1 c3bc e4d0 d43b ce41 043d 08e8 d03c
000000c0: 4da3 c4bd 775b 3d3d e100 933d 516d 3f3d
000000d0: 10db 0d39 ee55 d7bc 468e efbc 57f6 b2bd
000000e0: 178c e23d 7343 e23c bd94 afbd 85b8 43bb
000000f0: 996c e6bc 1c86 f23b 997f 6fbd f8c1 30bd
00000100: d59b aabd af6c e8bc 790d 75bc 6741 94bc
00000110: 22cd f43a 405c 9dbb e51d aabd 7d78 a33b
00000120: 2686 673d 2ecc 903c 137f 8fbb fc45 353d
00000130: 772d 01bd c9b7 d3bc 37ea 293d f52f 673b
00000140: a411 e93d d2d1 24bc 2184 f33c b508 953b
00000150: 0bb6 aebc 5e4d 5a3d c56c 693d e411 1c3d
00000160: 19b6 3c3b d36d 2a3c 1ff2 a43b 7dc6 01bd
00000170: 330f 6d3c 4ccd 003c 2741 513c e125 593a
00000180: 39fa 89bc 0f66 49bb dee7 2ebd a956 113d
00000190: 5d2b 613d 7ebe 91bc ca4a 103d 92c8 07bc
000001a0: dbc7 ca3c 725f 07bd c411 7e3c 0f6f 07bd
000001b0: 19b0 76bd 9ea5 e2bb 9865 84bd 60ef b0bd
000001c0: d476 aa3a d720 233d 9f5f b4bc 6a07 eb3c
000001d0: 6241 a6b9 7ddb 28bc 2e5b 39b7 98f0 4abc
000001e0: 0506 813c b809 193d bf78 d93b 9a2c 07bd
000001f0: b232 cabd 647c 8c3d beaf 66bd 8054 5d3d
00000200: c057 873c 891c d23a 35a4 0cbd fda3 a73b
00000210: e25a d03c 3593 ebbc de60 933c 2577 5abd
00000220: bbf8 a7bd 85c2 c03c f6ed 69bc 33a1 1f3d
00000230: e412 6cbd 5410 1fbd 9bb4 823d 89aa 94bd
00000240: 332b 093d b6a9 88bd 3a67 143d 9858 87bd
00000250: 5a00 c63b fcba edbb 7452 43bb 09aa dabb
00000260: 5e95 233d 2051 123b 6895 48bd 8ea4 3bbd
00000270: c108 8f3c 0c2d 13bd b56f 113d 4b53 fb3c
00000280: 225b c5bd 641f 043d 7a5f 1fbd 51ba 513d
00000290: d9de a4bc 3a09 76bd bbcc 76bd 73a7 883c
000002a0: d309 a73b ea8f e6bc 4e71 97bc 5c2c 02bd
000002b0: 30d1 843c d302 503d bcf4 d8bd 6e0b 93bd
000002c0: 616d 2b3d 83c5 b6bd c5f9 4ebd c1a6 393d
000002d0: 4245 eebb bd0c 043d baab 17bd 6619 333d
000002e0: 873a 4ebd f0a9 34bd 8329 7a3c 1cf2 a7bc
000002f0: 47b8 053d 1d95 593d 151f 843d 3524 ac3c
00000300: 3cd3 da3c 18ad d0bd cf0a bfbc 0f34 3e3d
00000310: e411 173d 728b 39bd 2c85 8abc 538e 04bd
00000320: 1858 35bd 42a0 6d3c f165 053c 299c 6b3c
00000330: 0c09 c2bd 5457 c43c 2165 27bc 1a3b 61bd
00000340: 39a3 26bc 0210 773c 0ce1 81bd 1969 9cbb
00000350: c3dd 45bd 3bcd f63b 3485 a43b 0fdf 9cbd
00000360: 1dc7 ebbb 130e d2bd 8e7a 3f3c 431c 093b
00000370: ac15 d23c c7bb 09bd 2414 333c d834 e13c
00000380: 8e6b 06bd 24aa 983c 7675 183c 6d68 4ebd
00000390: 2cc9 3f3c ed28 e63c b57e edbd cacf e03c
000003a0: cde0 ba3b acf4 b2bd 3c16 06bd c25d 8d3d
000003b0: 37c6 e4bd 1568 b33c 0c84 36bd 308c cbbc
000003c0: c881 853c d5a4 40bd e8c4 d83b a592 293c
000003d0: 8449 0bbd 6450 1ebd e164 003d f992 90bd
000003e0: 4a5f a03a f24d d0bb f2ce 883d a440 03bd
000003f0: 4568 d63b 8e72 10bd aaac 1d3c 2ba4 0eba

model.4.conv_2.weight f4 [64, 64, 3, 3]
0.070372686 0.0635476 0.06855317 0.012160717 0.07463016 -0.032797277 -0.009334085 0.011835237
-0.005350268 0.01856142 -0.015418716 0.053034343 0.024586268 -0.004827799 -0.01621395 -0.0076076146
-0.018796723 -0.039403535 0.024905862 -0.03572124 -0.039138027 0.008649448 0.043491457 -0.025295585
-0.05232088 0.027612379 -0.026337698 0.04910729 -0.011643623 -0.044559874 -0.0011542676 0.009946778
-0.024966732 -0.041573998 0.023891246 -0.053914487 -0.0062722377 -0.03667962 -0.0042052167 0.07434979
-0.031396918 0.028382285 -0.07740765 0.02858105 0.025879992 -0.06383138 0.0024401504 -0.020272583
0.03929994 0.028527629 -0.005997227 0.0045511797 -0.039706368 0.1034869 0.018393328 -0.0042836177
-0.07490765 0.0431986 0.015544902 -0.043216042 0.022772728 -0.011032323 0.02832688 -0.052466497
-0.07456641 -0.025805932 0.04090011 -0.09468298 0.025292244 -0.027652048 0.014232402 -0.032224935
-0.016178725 -0.05933588 0.02539818 0.008730822 -0.003399242 0.017617233 -0.009659932 0.027462794
0.010047963 -0.06883353 -0.063552946 -0.0607554 -0.08930912 0.06840475 -0.040444773 0.0020237633
0.008388829 0.027538044 -0.06738834 -0.024833556 -0.022471512 0.003942284 0.045280557 -0.031770352
0.015973706 0.007956856 -0.062069163 0.03786116 0.0006291633 -0.05381865 -0.046972215 0.008825923
0.03425653 0.017683381 -0.060001783 0.027473917 0.061997984 -0.04275772 -0.06798633 -0.0722547
-0.08441597 0.035085168 0.036850724 0.037161265 0.0840203 -0.06006975 -0.019656815 -0.006861696
-0.048305597 -0.06360636 -0.008252234 0.0016492845 0.014060856 0.024064876 0.0034634375 0.08205027
-0.05330945 0.027918007 -0.005592391 -0.022429604 -0.017891439 -0.0009623837 0.06660537 0.018238898
-0.0023351037 -0.030002201 0.09215347 0.03088509 0.08209531 -0.040493835 -0.0292762 0.050741117
0.04245337 0.0125695495 0.018530747 0.046542726 -0.008301173 -0.02936851 -0.07515292 0.0017259737
-0.05372486 -0.016002212 0.02677049 0.00936446 0.015142623 0.05671267 0.021800442 0.034129627
0.031635907 0.029270288 0.03537828 -0.013912035 0.04381512 0.027331498 -0.07062441 0.017845001
-0.0130839925 -0.07994051 -0.0040367497 -0.07884321 0.05490295 0.007636852 0.05747017 -0.020758273
-0.058011197 0.017514301 0.027620982 -0.0015229139 0.020360319 0.03006683 0.028225651 0.010298619
-0.030204527 -0.022515653 0.0241399 -0.01730916 0.025716523 -0.09514682 -0.07885667 -0.001050953
-0.006407692 0.011499356 -0.036314204 0.02107829 0.033876132 -0.061012823 -0.036046702 0.051128063
-0.054264586 0.08477919 0.022613818 -0.020585645 -0.050777204 0.034545343 0.014477608 -0.032263298
0.06811501 0.033591755 -0.017579384 0.013520499 0.025531212 -0.026419204 -0.022782782 -0.06862974
0.014618263 0.101792045 -0.031638503 0.018011969 0.02226961 -0.09529365 -0.09695114 0.016526293
-0.04397249 0.01677198 0.042566877 0.06246947 -0.023258386 0.040732928 -0.040903643 -0.0674842
-0.007942907 -0.046406586 0.02463202 -0.017311854 -0.02325109 -0.052162822 0.038470253 -0.05219315
0.044961903 0.073786 0.005679829 -0.013163748 -0.1124086 0.008902677 -0.08512267 0.072800115
-0.064638995 0.007869333 0.039014883 0.0021652996 -0.035181712 0.0141910035 0.042732064 0.011516538
00000000: 8e1f 903d 3e25 823d 9b65 8c3d be3d 473c
00000010: b3d7 983d 7056 06bd fded 18bc 95e8 413c
00000020: 4d51 afbb 1e0e 983c c89e 7cbc 8a3a 593d
00000030: 2469 c93c 8332 9ebb 1ed3 84bc 4c49 f9bb
00000040: 96fb 99bc 9a65 21bd 6107 cc3c 6f50 12bd
00000050: 324f 20bd 6ab6 0d3c 1924 323d b038 cfbc
00000060: 6b4e 56bd 5b33 e23c 28c2 d7bc ba24 493d
00000070: e5c4 3ebc 6a84 36bd cb4a 97ba d0f7 223c
00000080: 0887 ccbc 7f49 2abd 93b7 c33c 70d5 5cbd
00000090: 5887 cdbb 5f3d 16bd eacb 89bb b444 983d
000000a0: 0e9a 00bd f781 e83c e787 9ebd ce22 ea3c
000000b0: 4702 d43c 07ba 82bd eeea 1f3b b012 a6bc
000000c0: f9f8 203d c6b2 e93c 6384 c4bb 1022 953b
000000d0: 25a3 22bd f1f0 d33d 9bad 963c 975d 8cbb
000000e0: 2f69 99bd 04f1 303d 0bb0 7e3c 4e03 31bd
000000f0: df8d ba3c ebc0 34bc c60d e83c 1ce7 56bd
00000100: 46b6 98bd f666 d3bc e086 273d 26e9 c1bd
00000110: ae31 cf3c 8c86 e2bc 052f 693c 4bfe 03bd
00000120: 3f89 84bc 2e0a 73bd d80f d03c b90b 0f3c
00000130: d1c5 5ebb 0452 903c b144 1ebc a7f9 e03c
00000140: 36a0 243c 98f8 8cbd 0c28 82bd a8da 78bd
00000150: b3e7 b6bd ca17 8c3d 6ba9 25bd 1da1 043b
00000160: 4d71 093c 7797 e13c e602 8abd be6f cbbc
00000170: 2d16 b8bc 462e 813b 1b78 393d a121 02bd
00000180: 4adb 823c 795d 023c 3c3c 7ebd 4e14 1b3d
00000190: 6fee 243a f270 5cbd f065 40bd 9b9a 103c
000001a0: 9350 0c3d bddc 903c 6ec4 75bd fb10 e13c
000001b0: 99f1 7d3d b822 2fbd 6b3c 8bbd 46fa 93bd
000001c0: 48e2 acbd 77b5 0f3d c9f0 163d 6936 183d
000001d0: d612 ac3d b30b 76bd 5407 a1bc 14d8 e0bb
000001e0: 17dc 45bd 0d44 82bd 6134 07bc ce2c d83a
000001f0: 815f 663c b423 c53c d7fa 623b f909 a83d
00000200: 035b 5abd 4eb4 e43c 6040 b7bb 4abe b7bc
00000210: 1191 92bc 7a48 7cba 6568 883d be69 953c
00000220: 8a08 19bb 2dc7 f5bc f5ba bc3d ba02 fd3c
00000230: 9621 a83d dddc 25bd a4d4 efbc ebd5 4f3d
00000240: 96e3 2d3d 83f0 4d3c cbcd 973c 96a3 3e3d
00000250: a501 08bc 3b96 f0bc c6e9 99bd 113a e23a
00000260: 990e 5cbd 1217 83bc c94d db3c 646d 193c
00000270: c418 783c 8b4b 683d d796 b23c 82cb 0b3d
00000280: a794 013d 3ec8 ef3c d1e8 103d 4eef 63bc
00000290: 7c77 333d 4ee6 df3c 88a3 90bd ae2f 923c
000002a0: 3e5e 56bc dab7 a3bd b646 84bb 8d78 a1bd
000002b0: eae1 603d 8f3e fa3b d765 6b3d 410d aabc
000002c0: 269d 6dbd 277a 8f3c 6645 e23c 839c c7ba
000002d0: afca a63c b64e f63c 7b39 e73c 8abb 283c
000002e0: 7c6f f7bc bf72 b8bc 0ac1 c53c f1cb 8dbc
000002f0: 75ab d23c 56dc c2bd 9b7f a1bd 22c0 89ba
00000300: 9ef7 d1bb cb67 3c3c 34be 14bd 61ac ac3c
00000310: b3c1 0a3d 95e8 79bd b5a5 13bd a96b 513d
00000320: 8b44 5ebd b6a0 ad3d 9d40 b93c 3aa3 a8bc
00000330: c2fb 4fbd 6b7f 0d3d 7d33 6d3c 8526 04bd
00000340: e27f 8b3d 8297 093d a402 90bc 1585 5d3c
00000350: d526 d13c 166d d8bc f5a2 babc c08d 8cbd
00000360: 7081 6f3c 5978 d03d 6097 01bd d68d 933c
00000370: c26e b63c 5129 c3bd 528e c6bd 2662 873c
00000380: 7f1c 34bd 6465 893c 9b5a 2e3d fddf 7f3d
00000390: 5f88 bebc 92d7 263d 948a 27bd 2835 8abd
000003a0: f722 02bc d514 3ebd 17c9 c93c 97d1 8dbc
000003b0: 1279 bebc afa8 55bd fc92 1d3d 7cc8 55bd
000003c0: f929 383d 1d1d 973d dc1d ba3b c3ac 57bc
000003d0: 7b36 e6bd 89dc 113c cb54 aebd 3a18 953d
000003e0: 7361 84bd 60ee 003c 12ce 1f3d b3e7 0d3b
000003f0: b31a 10bd 6281 683c d107 2f3d ddaf 3c3c
